node {
  name: "global_step/Initializer/zeros"
  op: "Const"
  attr {
    key: "_class"
    value {
      list {
        s: "loc:@global_step"
      }
    }
  }
  attr {
    key: "_output_shapes"
    value {
      list {
        shape {
        }
      }
    }
  }
  attr {
    key: "dtype"
    value {
      type: DT_INT64
    }
  }
  attr {
    key: "value"
    value {
      tensor {
        dtype: DT_INT64
        tensor_shape {
        }
        int64_val: 0
      }
    }
  }
}
node {
  name: "global_step"
  op: "VariableV2"
  attr {
    key: "_class"
    value {
      list {
        s: "loc:@global_step"
      }
    }
  }
  attr {
    key: "_output_shapes"
    value {
      list {
        shape {
        }
      }
    }
  }
  attr {
    key: "container"
    value {
      s: ""
    }
  }
  attr {
    key: "dtype"
    value {
      type: DT_INT64
    }
  }
  attr {
    key: "shape"
    value {
      shape {
      }
    }
  }
  attr {
    key: "shared_name"
    value {
      s: ""
    }
  }
}
node {
  name: "global_step/Assign"
  op: "Assign"
  input: "global_step"
  input: "global_step/Initializer/zeros"
  attr {
    key: "T"
    value {
      type: DT_INT64
    }
  }
  attr {
    key: "_class"
    value {
      list {
        s: "loc:@global_step"
      }
    }
  }
  attr {
    key: "_output_shapes"
    value {
      list {
        shape {
        }
      }
    }
  }
  attr {
    key: "use_locking"
    value {
      b: true
    }
  }
  attr {
    key: "validate_shape"
    value {
      b: true
    }
  }
}
node {
  name: "global_step/read"
  op: "Identity"
  input: "global_step"
  attr {
    key: "T"
    value {
      type: DT_INT64
    }
  }
  attr {
    key: "_class"
    value {
      list {
        s: "loc:@global_step"
      }
    }
  }
  attr {
    key: "_output_shapes"
    value {
      list {
        shape {
        }
      }
    }
  }
}
node {
  name: "Const"
  op: "Const"
  attr {
    key: "_output_shapes"
    value {
      list {
        shape {
          dim {
            size: 2000
          }
        }
      }
    }
  }
  attr {
    key: "dtype"
    value {
      type: DT_INT64
    }
  }
  attr {
    key: "value"
    value {
      tensor {
        dtype: DT_INT64
        tensor_shape {
          dim {
            size: 2000
          }
        }
        tensor_content: "…"
      }
    }
  }
}
node {
  name: "Const_1"
  op: "Const"
  attr {
    key: "_output_shapes"
    value {
      list {
        shape {
          dim {
            size: 2000
          }
        }
      }
    }
  }
  attr {
    key: "dtype"
    value {
      type: DT_INT64
    }
  }
  attr {
    key: "value"
    value {
      tensor {
        dtype: DT_INT64
        tensor_shape {
          dim {
            size: 2000
          }
        }
        tensor_content: "…"
      }
    }
  }
}
node {
  name: "Const_2"
  op: "Const"
  attr {
    key: "_output_shapes"
    value {
      list {
        shape {
          dim {
            size: 2000
          }
        }
      }
    }
  }
  attr {
    key: "dtype"
    value {
      type: DT_INT64
    }
  }
  attr {
    key: "value"
    value {
      tensor {
        dtype: DT_INT64
        tensor_shape {
          dim {
            size: 2000
          }
        }
        tensor_content: "…"
      }
    }
  }
}
node {
  name: "Const_3"
  op: "Const"
  attr {
    key: "_output_shapes"
    value {
      list {
        shape {
          dim {
            size: 2000
          }
        }
      }
    }
  }
  attr {
    key: "dtype"
    value {
      type: DT_INT64
    }
  }
  attr {
    key: "value"
    value {
      tensor {
        dtype: DT_INT64
        tensor_shape {
          dim {
            size: 2000
          }
        }
        tensor_content: "…"
      }
    }
  }
}
node {
  name: "Const_4"
  op: "Const"
  attr {
    key: "_output_shapes"
    value {
      list {
        shape {
          dim {
            size: 2000
          }
        }
      }
    }
  }
  attr {
    key: "dtype"
    value {
      type: DT_DOUBLE
    }
  }
  attr {
    key: "value"
    value {
      tensor {
        dtype: DT_DOUBLE
        tensor_shape {
          dim {
            size: 2000
          }
        }
        tensor_content: "…"
      }
    }
  }
}
node {
  name: "Const_5"
  op: "Const"
  attr {
    key: "_output_shapes"
    value {
      list {
        shape {
          dim {
            size: 2000
          }
        }
      }
    }
  }
  attr {
    key: "dtype"
    value {
      type: DT_INT64
    }
  }
  attr {
    key: "value"
    value {
      tensor {
        dtype: DT_INT64
        tensor_shape {
          dim {
            size: 2000
          }
        }
        tensor_content: "…"
      }
    }
  }
}
node {
  name: "SparseTensor/indices"
  op: "Const"
  attr {
    key: "_output_shapes"
    value {
      list {
        shape {
          dim {
            size: 2000
          }
          dim {
            size: 2
          }
        }
      }
    }
  }
  attr {
    key: "dtype"
    value {
      type: DT_INT64
    }
  }
  attr {
    key: "value"
    value {
      tensor {
        dtype: DT_INT64
        tensor_shape {
          dim {
            size: 2000
          }
          dim {
            size: 2
          }
        }
        tensor_content: "…"
      }
    }
  }
}
node {
  name: "SparseTensor/values"
  op: "Const"
  attr {
    key: "_output_shapes"
    value {
      list {
        shape {
          dim {
            size: 2000
          }
        }
      }
    }
  }
  attr {
    key: "dtype"
    value {
      type: DT_STRING
    }
  }
  attr {
    key: "value"
    value {
      tensor {
        dtype: DT_STRING
        tensor_shape {
          dim {
            size: 2000
          }
        }
        string_val: "\355\203\234\352\267\271\352\270\260 \355\234\230\353\202\240\353\246\254\353\251\260"
        string_val: "\355\212\270\353\241\234\354\235\264"
        string_val: "…"
        string_val: "\352\267\200\354\213\240\354\235\264 \354\202\260\353\213\244"
        string_val: "\355\210\254\353\252\250\353\241\234\354\232\260\353\236\234\353\223\234"
        string_val: "\354\227\243\354\247\200 \354\230\244\353\270\214 \355\210\254\353\252\250\353\241\234\354\232\260"
        string_val: "\354\232\260\353\246\254 \355\230\225"
        string_val: "…"
        string_val: "\354\212\210\353\240\2112"
        string_val: "\354\213\244\353\257\270\353\217\204"
        string_val: "…"
        string_val: "\354\212\244\355\214\214\354\235\264\353\215\224\353\247\250 2"
        string_val: "\353\260\224\353\236\214\354\235\230 \355\214\214\354\235\264\355\204\260"
        string_val: "\354\230\244\355\216\230\353\235\274\354\235\230 \354\234\240\353\240\271"
        string_val: "…"
        string_val: "\353\212\221\353\214\200\354\235\230 \354\234\240\355\230\271"
        string_val: "\352\265\277\353\260\224\354\235\264 \354\213\261\352\270\200"
        string_val: "\354\213\234\354\213\244\353\246\254 2km"
        string_val: "\354\225\204\354\235\264, \353\241\234\353\264\207"
        string_val: "S \353\213\244\354\235\264\354\226\264\353\246\254"
        string_val: "\354\225\214\355\217\254\354\235\270\355\212\270"
        string_val: "\354\226\264\352\271\250 \353\204\210\353\250\270\354\235\230 \354\227\260\354\235\270"
        string_val: "\353\213\254\354\275\244, \354\202\264\353\262\214\355\225\234 \354\227\260\354\235\270"
        string_val: "…"
        string_val: "\354\226\264\353\246\260 \354\213\240\353\266\200"
        string_val: "\355\225\230\354\232\270\354\235\230 \354\233\200\354\247\201\354\235\264\353\212\224 \354\204\261"
        string_val: "\353\202\230\353\271\204\355\232\250\352\263\274"
        string_val: "\354\227\255\353\217\204\354\202\260"
        string_val: "\353\262\224\354\243\204\354\235\230 \354\236\254\352\265\254\354\204\261"
        string_val: "\353\260\230 \355\227\254\354\213\261"
        string_val: "\354\235\264\355\224\204 \354\230\250\353\246\254"
        string_val: "\354\227\254\354\204\240\354\203\235 VS \354\227\254\354\240\234\354\236\220"
        string_val: "…"
        string_val: "\354\225\204\353\235\274\355\225\234 \354\236\245\355\222\215\353\214\200\354\236\221\354\240\204"
        string_val: "\355\202\271 \354\225\204\353\215\224"
        string_val: "\353\202\264 \353\202\250\354\236\220\354\235\230 \353\241\234\353\247\250\354\212\244"
        string_val: "\355\232\250\354\236\220\353\217\231 \354\235\264\353\260\234\354\202\254"
        string_val: "\354\225\204\353\212\224 \354\227\254\354\236\220"
        string_val: "\353\213\254\353\247\210\354\225\274, \354\204\234\354\232\270 \352\260\200\354\236\220"
        string_val: "\354\213\240\353\266\200\354\210\230\354\227\205"
        string_val: "\353\270\224\353\240\210\354\235\264\353\223\234 3"
        string_val: "\354\212\210\355\215\274\354\212\244\355\203\200 \352\260\220\354\202\254\354\232\251"
        string_val: "\354\235\270\355\201\254\353\240\210\353\215\224\353\270\224"
        string_val: "\354\235\270\355\201\254\353\240\210\353\215\224\353\270\224 \355\227\220\355\201\254"
        string_val: "\353\266\204\354\213\240\354\202\254\353\260\224 2"
        string_val: "\353\266\204\354\213\240\354\202\254\353\260\224"
        string_val: "\353\247\220\354\243\275\352\261\260\353\246\254 \354\236\224\355\230\271\354\202\254"
        string_val: "\354\275\234\353\236\230\355\212\270\353\237\264"
        string_val: "\355\210\254 \352\260\200\354\235\264\354\246\210"
        string_val: "\353\217\210 \355\205\224 \355\214\214\355\214\214"
        string_val: "\353\210\204\352\265\254\353\202\230 \353\271\204\353\260\200\354\235\200 \354\236\210\353\213\244"
        string_val: "\352\275\203\355\224\274\353\212\224 \353\264\204\354\235\264 \354\230\244\353\251\264"
        string_val: "80\354\235\274\352\260\204\354\235\230 \354\204\270\352\263\204 \354\235\274\354\243\274"
        string_val: "\354\235\270\354\226\264 \352\263\265\354\243\274"
        string_val: "\353\252\251\355\217\254\353\212\224 \355\225\255\352\265\254\353\213\244"
        string_val: "\353\205\270\355\212\270\353\266\201"
        string_val: "…"
        string_val: "\353\271\214\353\246\254\354\247\200"
        string_val: "\352\267\270\353\206\210\354\235\200 \353\251\213\354\236\210\354\227\210\353\213\244"
        string_val: "\353\263\270 \354\212\210\355\224\204\353\246\254\353\250\270\354\213\234"
        string_val: "…"
        string_val: "\354\226\274\352\265\264 \354\227\206\353\212\224 \353\257\270\353\205\200"
        string_val: "…"
        string_val: "\353\247\250 \354\230\250 \355\214\214\354\235\264\354\226\264"
        string_val: "\353\235\274\354\212\244\355\212\270 \354\202\254\353\254\264\353\235\274\354\235\264"
        string_val: "\352\267\270\353\205\200\353\245\274 \353\257\277\354\247\200 \353\247\210\354\204\270\354\232\224"
        string_val: "\353\202\264\354\202\254\353\236\221 \354\213\270\352\260\200\354\247\200"
        string_val: "…"
        string_val: "\352\260\200\355\225\204\353\223\234 \355\216\253 \355\217\254\354\212\244 3D"
        string_val: "\352\260\200\355\225\204\353\223\234-\353\247\210\353\262\225\354\235\230 \354\203\230\353\254\274"
        string_val: "\352\260\200\355\225\204\353\223\234 2"
        string_val: "\352\260\200\355\225\204\353\223\234"
        string_val: "\354\225\214\353\240\211\354\202\260\353\215\224"
        string_val: "\354\242\213\354\225\204\355\225\264\354\244\230"
        string_val: "\354\215\270\353\213\210\354\225\204"
        string_val: "500\354\235\274\354\235\230 \354\215\270\353\250\270"
        string_val: "\354\260\251\354\213\240\354\225\204\353\246\254 \355\214\214\354\235\264\353\204\220"
        string_val: "\354\260\251\354\213\240\354\225\204\353\246\2542"
        string_val: "\353\247\271\353\266\200\354\202\274\354\262\234\354\247\200\352\265\220"
        string_val: "\355\225\230\353\245\230\354\235\270\354\203\235"
        string_val: "\354\235\270\355\230\225\354\202\254"
        string_val: "\355\217\264\353\235\274 \354\235\265\354\212\244\355\224\204\353\240\210\354\212\244"
        string_val: "\355\217\254\352\260\200\355\212\274"
        string_val: "\353\202\230\353\221\220\354\225\274 \352\260\204\353\213\244"
        string_val: "\354\272\243\354\232\260\353\250\274"
        string_val: "\354\262\253\355\202\244\354\212\244\353\247\214 50\353\262\210\354\247\270"
        string_val: "…"
        string_val: "…"
        string_val: "…"
        string_val: "\354\223\260\353\246\254 \353\252\254\354\212\244\355\204\260"
        string_val: "\355\231\224\354\224\250 911"
        string_val: "\354\212\244\355\205\235\355\217\254\353\223\234 \354\231\200\354\235\264\355\224\204"
        string_val: "\352\271\214\353\266\210\354\247\200\353\247\210"
        string_val: "\353\224\224 \354\225\204\354\235\2642"
        string_val: "…"
        string_val: "\353\217\231\355\225\264\353\254\274\352\263\274 \353\260\261\353\221\220\354\202\260\354\235\264"
        string_val: "\355\224\274\355\204\260 \355\214\254"
        string_val: "…"
        string_val: "\355\202\254 \353\271\2142"
        string_val: "…"
        string_val: "\353\202\264\354\205\224\353\204\220 \355\212\270\353\240\210\354\240\270"
        string_val: "\355\216\230\354\235\264\354\262\265"
        string_val: "…"
        string_val: "2046"
        string_val: "\354\226\264\352\271\250\353\217\231\353\254\264"
        string_val: "…"
        string_val: "\355\227\254\353\263\264\354\235\264"
        string_val: "\355\227\254\353\263\264\354\235\264 2 : \352\263\250\353\223\240 \354\225\204\353\257\270"
        string_val: "\354\203\210\353\262\275\354\235\230 \354\240\200\354\243\274"
        string_val: "\353\271\204\355\217\254 \354\204\240\354\205\213"
        string_val: "DMZ, \353\271\204\353\254\264\354\236\245\354\247\200\353\214\200"
        string_val: "…"
        string_val: "\355\225\230\353\202\230\354\231\200 \354\225\250\353\246\254\354\212\244"
        string_val: "\354\240\200\354\247\200 \352\261\270"
        string_val: "…"
        string_val: "\355\200\270\354\271\264\353\241\234 \354\202\264\354\225\204\353\202\250\353\212\224 \353\262\225"
        string_val: "\353\260\234\353\240\210 \352\265\220\354\212\265\354\206\214"
        string_val: "\353\215\260\354\212\244\355\213\260\353\204\244\354\235\264\354\205\230 2"
        string_val: "\354\225\204\355\231\211\354\202\264 \354\235\270\354\203\235"
        string_val: "\355\231\224\354\235\264\355\212\270 \354\271\231\354\212\244"
        string_val: "…"
        string_val: "\353\271\205 \355\224\274\354\211\254"
        string_val: "\353\271\210\354\247\221"
        string_val: "…"
        string_val: "21 \352\267\270\353\236\250"
        string_val: "\352\261\260\353\257\270\354\210\262"
        string_val: "…"
        string_val: "\353\237\254\353\270\214 \354\225\241\354\270\204\354\226\274\353\246\254"
        string_val: "\353\205\270 \353\270\214\353\240\210\354\235\270 \353\240\210\354\235\264\354\212\244"
        string_val: "\353\252\254\354\212\244\355\204\260 \355\230\270\355\205\224 2"
        string_val: "\353\252\254\354\212\244\355\204\260 \355\227\214\355\212\270"
        string_val: "\353\271\231\354\232\260"
        string_val: "…"
        string_val: "\354\275\234\353\223\234 \353\247\210\354\232\264\355\213\264"
        string_val: "\354\227\254\352\263\240\354\203\235 \354\213\234\354\247\221\352\260\200\352\270\260"
        string_val: "…"
        string_val: "\352\267\200\354\227\254\354\233\214"
        string_val: "…"
        string_val: "\354\213\240\354\204\235\352\270\260 \353\270\224\353\243\250\354\212\244"
        string_val: "\353\247\210\354\247\200\353\247\211 \353\212\221\353\214\200"
        string_val: "…"
        string_val: "…"
        string_val: "\353\217\214\353\240\244\354\260\250\352\270\260"
        string_val: "\354\213\240\354\225\224\355\226\211\354\226\264\354\202\254"
        string_val: "\354\225\210\353\205\225! \354\234\240\354\227\220\355\224\204\354\230\244"
        string_val: "…"
        string_val: "\355\205\214\354\235\264\355\202\271 \353\235\274\354\235\264\353\270\214\354\246\210"
        string_val: "\355\217\264\353\246\254\354\231\200 \355\225\250\352\273\230"
        string_val: "\353\252\250\353\202\230\353\246\254\354\236\220 \354\212\244\353\247\210\354\235\274"
        string_val: "…"
        string_val: "\353\247\235\354\271\230"
        string_val: "…"
        string_val: "\352\260\223\354\204\274\353\223\234"
        string_val: "\353\215\224 \354\272\243"
        string_val: "\352\267\270\353\205\200\353\245\274 \353\252\250\353\245\264\353\251\264 \352\260\204\354\262\251"
        string_val: "\355\236\210\353\213\254\352\263\240"
        string_val: "\355\214\234\353\257\200 \355\214\214\355\203\210"
        string_val: "\355\227\214\355\213\260\353\223\234 \353\247\250\354\205\230"
        string_val: "\354\212\244\354\277\250 \354\230\244\353\270\214 \353\235\275"
        string_val: "…"
        string_val: "\354\235\270 \353\215\224 \354\273\267"
        string_val: "\353\240\210\354\235\264\353\224\224\355\202\254\353\237\254"
        string_val: "…"
        string_val: "\354\236\220\355\206\240\354\235\264\354\271\230"
        string_val: "\352\263\240\355\213\260\354\271\264"
        string_val: "\353\237\260\354\226\264\354\233\250\354\235\264\354\246\210"
        string_val: "\355\203\200\354\236\204\353\235\274\354\235\270"
        string_val: "\354\230\201 \354\225\204\353\213\264"
        string_val: "\353\214\200\353\213\250\355\225\234 \354\234\240\355\230\271"
        string_val: "\354\262\234\352\263\265\354\235\230 \354\204\261 \353\235\274\355\223\250\355\203\200"
        string_val: "\353\217\204\353\247\210 \354\225\210\354\244\221\352\267\274"
        string_val: "\353\202\230\354\201\234 \352\265\220\354\234\241"
        string_val: "…"
        string_val: "\354\230\254\353\223\234\353\263\264\354\235\264"
        string_val: "\354\205\247\354\227\205"
        string_val: "…"
        string_val: "\355\234\264\353\250\274 \354\212\244\355\205\214\354\235\270"
        string_val: "\353\270\214\353\235\274\353\215\224 \353\262\240\354\226\264"
        string_val: "\353\257\270\354\271\230\352\263\240 \354\213\266\354\235\204 \353\225\214"
        string_val: "\354\212\244\355\203\200\354\212\244\355\202\244\354\231\200 \355\227\210\354\271\230"
        string_val: "\354\227\264\353\221\220\353\252\205\354\235\230 \354\233\254\354\210\230\353\223\2442"
        string_val: "\354\227\264\353\221\220\353\252\205\354\235\230 \354\233\254\354\210\230\353\223\244 "
        string_val: "\354\233\250\354\235\274 \353\235\274\354\235\264\353\215\224"
        string_val: "\353\247\210\352\260\225\355\230\270\355\205\224"
        string_val: "\352\262\200\354\232\260\352\260\225\355\230\270"
        string_val: "\354\227\230\353\246\254\355\216\200\355\212\270 \354\206\241"
        string_val: "…"
        string_val: "\353\262\240\354\235\264\354\247\201"
        string_val: "…"
        string_val: "\353\243\251 \354\225\263 \353\257\270"
        string_val: "\352\263\240\353\217\205\354\235\264 \353\252\270\353\266\200\353\246\274\354\271\240 \353\225\214"
        string_val: "…"
        string_val: "\353\202\250\352\263\274 \354\227\254"
        string_val: "\354\233\260\354\273\264 \355\210\254 \353\217\231\353\247\211\352\263\250"
        string_val: "…"
        string_val: "\353\247\220\354\225\204\355\206\244"
        string_val: "\355\225\264\353\246\254\355\217\254\355\204\260\354\231\200 \353\266\210\354\235\230 \354\236\224"
        string_val: "\353\241\234\353\247\250\355\213\261 \354\225\204\354\235\274\353\236\234\353\223\234"
        string_val: "\352\263\265\352\263\265\354\235\230 \354\240\201 2"
        string_val: "\354\271\234\354\240\210\355\225\234 \352\270\210\354\236\220\354\224\250"
        string_val: "\355\203\234\355\222\215\354\235\264 \354\247\200\353\202\230\352\260\200\352\263\240"
        string_val: "\353\241\244\353\237\254\354\275\224\354\212\244\355\204\260"
        string_val: "\355\203\234\355\222\215"
        string_val: "…"
        string_val: "\353\204\210\353\212\224 \353\202\264 \354\232\264\353\252\205"
        string_val: "\354\232\260\354\243\274\354\240\204\354\237\201"
        string_val: "\353\247\210\355\214\214\353\217\2042"
        string_val: "…"
        string_val: "\355\202\271\354\275\251\354\235\204 \353\223\244\353\213\244"
        string_val: "\355\202\271\354\275\251"
        string_val: "\353\260\225\354\210\230\354\271\240 \353\225\214 \353\226\240\353\202\230\353\235\274"
        string_val: "\352\264\221\354\213\235\354\235\264 \353\217\231\354\203\235 \352\264\221\355\203\234"
        string_val: "\355\230\210\354\235\230 \353\210\204"
        string_val: "\353\214\204\354\204\234\354\235\230 \354\210\234\354\240\225"
        string_val: "\354\275\230\354\212\244\355\203\204\355\213\264"
        string_val: "\354\236\240\353\263\265\352\267\274\353\254\264"
        string_val: "\354\227\260\354\225\240\354\235\230 \353\252\251\354\240\201"
        string_val: "…"
        string_val: "\354\243\274\353\250\271\354\235\264 \354\232\264\353\213\244(Crying Fist)"
        string_val: "\353\247\210\353\213\244\352\260\200\354\212\244\354\271\264\354\235\230 \355\216\255\352\267\204"
        string_val: "…"
        string_val: "\353\247\210\353\213\244\352\260\200\354\212\244\354\271\264"
        string_val: "\353\247\210\353\213\244\352\260\200\354\212\244\354\271\264 2"
        string_val: "\354\225\274\354\210\230\354\231\200 \353\257\270\353\205\200"
        string_val: "\352\260\204 \355\201\260 \352\260\200\354\241\261"
        string_val: "\354\260\260\353\246\254\354\231\200 \354\264\210\354\275\234\353\246\277 \352\263\265\354\236\245"
        string_val: "\354\236\221\354\227\205\354\235\230 \354\240\225\354\204\235"
        string_val: "\355\202\271\353\215\244 \354\230\244\353\270\214 \355\227\244\353\270\220"
        string_val: "B\355\230\225 \353\202\250\354\236\220\354\271\234\352\265\254"
        string_val: "\353\257\270\354\212\244\355\204\260 \354\206\214\355\201\254\353\235\274\355\205\214\354\212\244"
        string_val: "\354\227\260\354\225\240\354\210\240\354\202\254"
        string_val: "\355\214\214\354\206\241\354\206\241 \352\263\204\353\236\200\355\203\201"
        string_val: "\354\262\234\352\265\260"
        string_val: "\354\225\210\353\205\225, \355\230\225\354\225\204"
        string_val: "\355\230\225\354\202\254; Duelist"
        string_val: "\354\203\210\353\223\234\353\254\264\353\271\204"
        string_val: "\353\202\250\352\267\271\354\235\274\352\270\260"
        string_val: "\353\260\260\355\212\270\353\247\250 \353\271\204\352\270\264\354\246\210"
        string_val: "\354\230\244\353\241\234\353\235\274 \352\263\265\354\243\274"
        string_val: "\352\260\225\353\240\245 3\353\260\230"
        string_val: "\354\277\265\355\221\270 \355\227\210\354\212\254"
        string_val: "\353\252\275\354\240\225\352\270\2602"
        string_val: "\354\230\244\354\205\230\354\212\244 \355\212\270\354\233\260\353\270\214"
        string_val: "…"
        string_val: "…"
        string_val: "…"
        string_val: "\354\231\225\354\235\230 \353\202\250\354\236\220"
        string_val: "\354\210\250\353\260\224\352\274\255\354\247\210"
        string_val: "\355\224\214\353\235\274\354\235\264\355\212\270 \355\224\214\353\236\234"
        string_val: "…"
        string_val: "\353\202\230\354\235\230 \352\262\260\355\230\274\354\233\220\354\240\225\352\270\260"
        string_val: "…"
        string_val: "\354\227\220\353\271\204\354\227\220\354\235\264\355\204\260"
        string_val: "…"
        string_val: "6\354\233\224\354\235\230 \354\235\274\352\270\260"
        string_val: "\355\214\220\355\203\200\354\212\244\355\213\261 4"
        string_val: "…"
        string_val: "\355\214\220\355\203\200\354\212\244\355\213\2614"
        string_val: "\352\267\270\353\243\250\354\247\200"
        string_val: "\352\267\270\353\243\250\354\247\200 2"
        string_val: "\352\267\270\353\243\250\354\247\200 3"
        string_val: "\353\254\264\354\230\201\352\262\200"
        string_val: "…"
        string_val: "\352\260\200\353\260\234"
        string_val: "\355\202\244\353\213\244\353\246\254 \354\225\204\354\240\200\354\224\250"
        string_val: "\354\213\240\353\215\260\353\240\220\353\235\274\353\247\250"
        string_val: "\354\227\254\352\263\240\352\264\264\353\213\264 4 : \353\252\251\354\206\214\353\246\254"
        string_val: "\355\230\270\354\212\244\355\213\260\354\247\200"
        string_val: "\354\233\224\353\223\234 \354\230\244\353\270\214 \355\210\254\353\252\250\353\241\234\354\232\260"
        string_val: "…"
        string_val: "\354\202\254\353\236\221\355\225\264, \353\247\220\354\210\234\354\224\250"
        string_val: "\354\230\271\353\260\225 : \353\221\220\353\262\210\354\247\270 \353\257\270\354\205\230"
        string_val: "\353\211\264 \355\217\264\353\246\254\354\212\244 \354\212\244\355\206\240\353\246\254"
        string_val: "\353\257\270\354\212\244\355\204\260 \354\243\274\353\266\200\355\200\264\354\246\210\354\231\225"
        string_val: "…"
        string_val: "\354\224\254 \354\213\234\355\213\260"
        string_val: "\353\202\230\354\235\264\355\212\270 \355\224\214\353\235\274\354\235\264\355\212\270"
        string_val: "\353\240\210\354\240\204\353\223\234 \354\230\244\353\270\214 \354\241\260\353\241\234"
        string_val: "\354\205\224\355\204\260 \354\225\204\354\235\274\353\236\234\353\223\234"
        string_val: "\354\205\224\355\204\260"
        string_val: "\354\271\240\352\262\200"
        string_val: "\354\225\240\355\224\204\355\204\260 \354\204\240\354\205\213"
        string_val: "\354\235\270\355\204\260\355\224\204\353\246\254\355\204\260"
        string_val: "\354\240\200\354\212\244\355\212\270 \353\235\274\354\235\264\355\201\254 \355\227\244\353\270\220"
        string_val: "\354\217\230\354\232\260 V"
        string_val: "\354\217\230\354\232\260 3D"
        string_val: "\354\217\230\354\232\260"
        string_val: "\354\217\230\354\232\260-\354\227\254\354\204\257\353\262\210\354\235\230 \352\270\260\355\232\214"
        string_val: "\354\217\230\354\232\260 2"
        string_val: "\354\217\230\354\232\260 3"
        string_val: "\354\217\230\354\232\260 4"
        string_val: "\353\257\270\355\212\270 \355\216\230\354\226\264\353\237\260\354\270\2402"
        string_val: "\352\267\270\353\205\200\353\212\224 \354\232\224\354\210\240\354\237\201\354\235\264"
        string_val: "\355\214\214\353\236\221\354\243\274\354\235\230\353\263\264"
        string_val: "pm 11:14"
        string_val: "\355\225\230\354\232\260\354\212\244 \354\230\244\353\270\214 \354\231\201\354\212\244"
        string_val: "\354\262\255\354\227\260"
        string_val: "\355\201\264\353\241\234\354\240\200"
        string_val: "\354\240\234\353\213\210, \354\243\274\353\205\270"
        string_val: "\354\274\200\354\235\264\353\270\214"
        string_val: "\355\224\204\353\235\274\354\236\204 \353\237\254\353\270\214"
        string_val: "\354\206\214\353\205\204, \354\262\234\352\265\255\354\227\220 \352\260\200\353\213\244"
        string_val: "…"
        string_val: "…"
        string_val: "\353\204\244\353\262\204\353\236\234\353\223\234\353\245\274 \354\260\276\354\225\204\354\204\234"
        string_val: "\353\260\200\353\246\254\354\226\270\354\246\210"
        string_val: "\354\235\264\355\204\260\353\204\220 \354\204\240\354\203\244\354\235\270"
        string_val: "…"
        string_val: "…"
        string_val: "\354\232\260\353\246\254, \354\202\254\353\236\221\354\235\274\352\271\214\354\232\224?"
        string_val: "\355\201\254\353\246\274\354\212\250 \353\246\254\353\262\2042"
        string_val: "…"
        string_val: "…"
        string_val: "\354\202\254\353\236\221\353\213\210"
        string_val: "…"
        string_val: "…"
        string_val: "\354\234\240\355\235\254\354\231\225"
        string_val: "\352\262\214\354\212\244\355\233\204"
        string_val: "\353\202\240 \353\257\270\354\271\230\352\262\214\355\225\230\353\212\224 \353\202\250\354\236\220"
        string_val: "\353\202\230\354\235\270 \354\225\274\353\223\234 2"
        string_val: "\353\241\234\353\223\234 \354\230\244\353\270\214 \354\233\214"
        string_val: "\354\212\244\353\254\274"
        string_val: "\353\202\264 \352\271\241\355\214\250 \352\260\231\354\235\200 \354\225\240\354\235\270"
        string_val: "\354\275\224\353\237\254\354\212\244"
        string_val: "\354\234\224\353\270\224\353\215\230"
        string_val: "…"
        string_val: "…"
        string_val: "\354\226\264\354\215\260\355\212\270 13"
        string_val: "\354\225\204\353\257\270\355\213\260\353\271\214 \355\230\270\353\237\254"
        string_val: "4 \353\270\214\353\235\274\353\215\224\354\212\244"
        string_val: "\353\202\230\353\245\274 \354\261\205\354\236\204\354\240\270, \354\225\214\355\224\274"
        string_val: "\354\227\230\353\246\254\354\236\220\353\262\240\354\212\244\355\203\200\354\232\264"
        string_val: "\353\236\234\353\223\234 \354\230\244\353\270\214 \353\215\260\353\223\234"
        string_val: "\353\266\200\352\270\260\353\247\250"
        string_val: "\354\231\225\355\233\204 \354\213\254\354\262\255"
        string_val: "\354\275\224\354\271\230 \354\271\264\355\204\260"
        string_val: "…"
        string_val: "\355\214\250\354\213\234\355\214\214\354\235\264\354\226\264"
        string_val: "\353\247\210\353\215\224 \353\215\260\353\240\210\354\202\254"
        string_val: "\354\212\244\355\214\200\353\263\264\354\235\264"
        string_val: "\355\224\274\353\213\211\354\212\244"
        string_val: "\355\201\220\353\270\214 \354\240\234\353\241\234"
        string_val: "\354\230\244\355\224\210 \354\233\214\355\204\260"
        string_val: "…"
        string_val: "\355\227\210\353\271\204"
        string_val: "\354\212\244\354\274\210\353\246\254\355\206\244 \355\202\244"
        string_val: "\355\202\250\354\240\234\354\235\264 \353\263\264\352\263\240\354\204\234"
        string_val: "\354\227\254\354\236\220, \354\240\225\355\230\234"
        string_val: "\355\231\224\354\235\264\355\212\270 \353\205\270\354\235\264\354\246\210"
        string_val: "\352\267\271\354\236\245\354\240\204"
        string_val: "\353\236\230\353\215\224 49"
        string_val: "…"
        string_val: "…"
        string_val: "\354\235\270\352\262\214\354\235\264\354\247\200\353\250\274\355\212\270"
        string_val: "…"
        string_val: "\353\252\275\354\203\201\352\260\200\353\223\244"
        string_val: "\353\262\240\353\213\210\355\213\260 \355\216\230\354\226\264"
        string_val: "\353\270\224\353\243\250\354\212\244\355\206\260"
        string_val: "…"
        string_val: "\354\202\254\354\235\264\353\223\234\354\233\250\354\235\264"
        string_val: "\354\204\270\354\273\250\355\225\270\353\223\234 \353\235\274\354\235\264\354\230\250\354\212\244"
        string_val: "…"
        string_val: "…"
        string_val: "\353\266\210\353\237\211\352\263\265\354\243\274 \353\252\250\353\252\250\354\275\224"
        string_val: "…"
        string_val: "69 \354\213\235\354\212\244\355\213\260 \353\202\230\354\235\270"
        string_val: "\354\242\205\353\240\244\353\202\230\353\254\264 \354\210\262"
        string_val: "\353\237\254\353\270\214\355\206\240\355\201\254"
        string_val: "\352\261\260\353\266\201\354\235\264\353\217\204 \353\202\234\353\213\244"
        string_val: "\353\270\214\353\241\234\355\201\260 \355\224\214\353\235\274\354\233\214"
        string_val: "\353\240\210\354\225\214"
        string_val: "\353\205\271\354\203\211\354\235\230\354\236\220"
        string_val: "\352\263\250!"
        string_val: "\355\206\240\353\213\210 \355\203\200\355\202\244\355\203\200\353\213\210"
        string_val: "\354\232\251\354\204\234\353\260\233\354\247\200 \353\252\273\355\225\234 \354\236\220"
        string_val: "\352\264\264\353\254\274"
        string_val: "…"
        string_val: "\352\264\264\353\254\274\354\235\230 \354\225\204\354\235\264"
        string_val: "\355\203\200\354\247\234"
        string_val: "\355\203\200\354\247\234-\354\213\240\354\235\230 \354\206\220"
        string_val: "\353\257\270\354\205\230 \354\236\204\355\214\214\354\204\234\353\270\224 3"
        string_val: "\355\210\254\354\202\254\353\266\200\354\235\274\354\262\264"
        string_val: "…"
        string_val: "\355\225\234\353\260\230\353\217\204"
        string_val: "…"
        string_val: "\353\257\270\353\205\200\353\212\224 \352\264\264\353\241\234\354\233\214"
        string_val: "\354\262\234\354\202\254\354\231\200 \354\225\205\353\247\210"
        string_val: "\353\213\244\353\271\210\354\271\230 \354\275\224\353\223\234"
        string_val: "…"
        string_val: "…"
        string_val: "\353\260\225\353\254\274\352\264\200\354\235\264 \354\202\264\354\225\204\354\236\210\353\213\244!"
        string_val: "\354\235\214\353\236\200\354\204\234\354\203\235"
        string_val: "\353\247\250\353\260\234\354\235\230 \352\270\260\353\264\211\354\235\264"
        string_val: "\353\271\204\354\227\264\355\225\234 \352\261\260\353\246\254"
        string_val: "…"
        string_val: "\354\202\254\354\203\235\352\262\260\353\213\250"
        string_val: "\354\210\230\355\215\274\353\247\250 \353\246\254\355\204\264\354\246\210"
        string_val: "\352\265\254\354\204\270\354\243\274 2"
        string_val: "\352\265\254\354\204\270\354\243\274"
        string_val: "\353\235\274\353\224\224\354\230\244 \354\212\244\355\203\200"
        string_val: "\354\262\255\354\266\230\353\247\214\355\231\224"
        string_val: "\355\235\241\355\230\210\355\230\225\354\202\254 \353\202\230\353\217\204\354\227\264"
        string_val: "\352\261\260\353\243\251\355\225\234 \352\263\204\353\263\264"
        string_val: "…"
        string_val: "\355\225\264\353\260\224\353\235\274\352\270\260"
        string_val: "…"
        string_val: "\352\260\201\354\204\244\355\203\225"
        string_val: "\355\225\264\355\224\274 \355\231\200\353\246\254\353\215\260\354\235\264"
        string_val: "\353\241\234\353\247\250\355\213\261 \355\231\200\353\246\254\353\215\260\354\235\264"
        string_val: "\354\244\221\354\262\234"
        string_val: "\354\213\270\354\233\200\354\235\230 \352\270\260\354\210\240"
        string_val: "\353\252\254\354\212\244\355\204\260 \355\225\230\354\232\260\354\212\244"
        string_val: "\354\247\235\355\214\250"
        string_val: "\354\225\204\353\236\221"
        string_val: "\353\271\250\352\260\204\353\252\250\354\236\220\354\235\230 \354\247\204\354\213\244"
        string_val: "\353\271\250\352\260\204\353\252\250\354\236\220\354\235\230 \354\247\204\354\213\244 2"
        string_val: "\353\215\260\354\235\264\354\247\200"
        string_val: "\354\230\244\353\247\214\352\263\274 \355\216\270\352\262\254"
        string_val: "\352\262\214\354\235\264\354\203\244\354\235\230 \354\266\224\354\226\265"
        string_val: "\355\227\267\354\247\200"
        string_val: "\354\225\274\354\210\230"
        string_val: "\353\247\210\354\235\214\354\235\264..."
        string_val: "007 \354\271\264\354\247\200\353\205\270 \353\241\234\354\226\204"
        string_val: "\354\230\210\354\235\230\354\227\206\353\212\224 \352\262\203\353\223\244"
        string_val: "\353\260\251\352\263\274\355\233\204 \354\230\245\354\203\201"
        string_val: "\354\235\274\353\263\270\354\271\250\353\252\260"
        string_val: "\353\256\214\355\227\250"
        string_val: "\353\254\264\352\267\271"
        string_val: "…"
        string_val: "Mr.\353\241\234\353\271\210 \352\274\254\354\213\234\352\270\260"
        string_val: "…"
        string_val: "\353\215\260\354\212\244\353\205\270\355\212\270"
        string_val: "…"
        string_val: "…"
        string_val: "\352\260\200\354\235\204\353\241\234"
        string_val: "\354\262\234\355\225\230\354\236\245\354\202\254 \353\247\210\353\217\210\353\202\230"
        string_val: "…"
        string_val: "\354\241\260\355\217\255\353\247\210\353\210\204\353\235\2743"
        string_val: "…"
        string_val: "…"
        string_val: "\353\260\261\353\247\214\354\236\245\354\236\220\354\235\230 \354\262\253\354\202\254\353\236\221"
        string_val: "\354\213\240\353\215\260\353\240\220\353\235\274"
        string_val: "\353\224\224\355\214\214\355\213\260\353\223\234"
        string_val: "…"
        string_val: "\354\212\244\354\212\271\354\235\230 \354\235\200\355\230\234"
        string_val: "\354\225\204\355\214\214\355\212\270"
        string_val: "\354\230\254\353\223\234\353\257\270\354\212\244\353\213\244\354\235\264\354\226\264\353\246\254"
        string_val: "\354\271\230\355\202\250\353\246\254\355\213\200"
        string_val: "…"
        string_val: "\353\273\224\353\273\224\355\225\234 \353\224\225&\354\240\234\354\235\270"
        string_val: "\353\213\244\354\204\270\355\217\254\354\206\214\353\205\200"
        string_val: "…"
        string_val: "\354\202\254\353\236\221\354\235\204 \353\206\223\354\271\230\353\213\244"
        string_val: "\354\227\264\355\230\210\353\202\250\354\225\204"
        string_val: "\355\230\270\353\241\234\353\271\204\354\270\240\353\245\274 \354\234\204\355\225\230\354\227\254"
        string_val: "\355\224\204\353\240\210\354\212\244\355\213\260\354\247\200"
        string_val: "\355\225\264\355\224\274 \355\224\274\355\212\270 2"
        string_val: "\355\225\264\355\224\274 \355\224\274\355\212\270"
        string_val: "\353\270\214\354\235\264 \355\217\254 \353\262\244\353\215\260\355\203\200"
        string_val: "\355\224\214\353\235\274\354\235\264 \353\214\200\353\224\224"
        string_val: "…"
        string_val: "\353\247\210\354\235\264\354\225\240\353\257\270 \353\260\224\354\235\264\354\212\244"
        string_val: "\354\233\220\355\203\201\354\235\230 \354\262\234\354\202\254"
        string_val: "\354\225\204\354\235\264\354\212\244\354\274\200\355\202\244"
        string_val: "\354\225\274\354\227\260"
        string_val: "\353\217\204\353\247\210\353\261\200"
        string_val: "\354\212\244\355\205\235 \354\227\205: \354\230\254 \354\235\270"
        string_val: "\354\212\244\355\205\235\354\227\2054 : \353\240\210\353\263\274\353\243\250\354\205\230"
        string_val: "\354\212\244\355\205\235 \354\227\205 3D"
        string_val: "…"
        string_val: "\353\237\255\355\202\244 \353\204\230\353\262\204 \354\212\254\353\240\210\353\270\220"
        string_val: "…"
        string_val: "…"
        string_val: "…"
        string_val: "\353\252\250\353\205\270\355\217\264\353\246\254"
        string_val: "…"
        string_val: "BB\355\224\204\353\241\234\354\240\235\355\212\270"
        string_val: "\354\236\224\355\230\271\355\225\234 \354\266\234\352\267\274"
        string_val: "\353\232\235\353\260\251\354\240\204\354\204\244"
        string_val: "\354\233\220\354\264\210\354\240\201 \353\263\270\353\212\245 2"
        string_val: "\353\254\264\354\235\270 \352\263\275\354\233\220\352\260\221"
        string_val: "\354\233\224\353\223\234 \355\212\270\353\240\210\354\235\264\353\223\234 \354\204\274\355\204\260"
        string_val: "\354\235\270\354\202\254\354\235\264\353\223\234 \353\247\250"
        string_val: "\352\267\270\355\225\264 \354\227\254\353\246\204"
        string_val: "\354\234\240\354\213\244\353\254\274"
        string_val: "\354\213\235\354\212\244\355\213\264\353\270\224\353\237\255"
        string_val: "\353\223\234\353\246\254\353\250\270"
        string_val: "\354\233\250\353\224\251 \355\201\254\353\236\230\354\205\224"
        string_val: "…"
        string_val: "\354\225\204\354\235\264\354\212\244 \354\227\220\354\235\264\354\247\200 2"
        string_val: "\352\260\200\353\266\200\354\231\200 \353\251\224\354\235\264 \354\235\264\354\225\274\352\270\260"
        string_val: "\354\236\230 \354\202\264\354\225\204\353\263\264\354\204\270"
        string_val: "\354\240\200\354\212\244\355\212\270 \355\224\204\353\240\214\353\223\234"
        string_val: "\354\203\235, \353\202\240\354\204\240\354\203\235"
        string_val: "\354\225\244\355\212\270 \353\266\210\353\246\254"
        string_val: "…"
        string_val: "…"
        string_val: "\355\214\214\354\235\264\354\212\244\355\206\240\353\246\254"
        string_val: "\352\265\255\352\262\275\354\235\230 \353\202\250\354\252\275"
        string_val: "13\352\265\254\354\227\255: \354\226\274\355\213\260\353\251\224\354\235\264\355\205\200"
        string_val: "13\352\265\254\354\227\255"
        string_val: "\354\202\254\353\236\221\355\225\230\353\213\210\352\271\214, \352\264\234\354\260\256\354\225\204"
        string_val: "…"
        string_val: "…"
        string_val: "\353\270\214\353\241\234\355\201\254\353\260\261 \353\247\210\354\232\264\355\213\264"
        string_val: "…"
        string_val: "\354\226\264\353\212\220 \353\251\213\354\247\204 \354\210\234\352\260\204"
        string_val: "\354\225\231\354\275\224\353\245\264"
        string_val: "…"
        string_val: "\354\202\254\354\235\274\353\237\260\355\212\270 \355\236\220"
        string_val: "\354\241\260\354\232\251\355\225\234 \354\204\270\354\203\201"
        string_val: "\352\263\265\355\225\204\353\221\220"
        string_val: "\355\225\264\353\263\200\354\235\230 \354\227\254\354\235\270"
        string_val: "…"
        string_val: "\354\206\220\353\213\230\354\235\200 \354\231\225\354\235\264\353\213\244"
        string_val: "\355\210\254 \353\270\214\353\235\274\353\215\224\354\212\244"
        string_val: "…"
        string_val: "\352\265\254\355\203\200\354\234\240\353\260\234\354\236\220\353\223\244"
        string_val: "\352\265\254\353\257\270\355\230\270 \352\260\200\354\241\261"
        string_val: "\355\214\214\354\235\264\354\226\264\354\233\224"
        string_val: "\353\240\210\354\235\264\355\201\254 \355\225\230\354\232\260\354\212\244"
        string_val: "…"
        string_val: "DOA"
        string_val: "\353\247\244\354\271\230 \355\217\254\354\235\270\355\212\270"
        string_val: "\354\204\274\355\213\260\353\204\254"
        string_val: "\354\227\220\353\224\224\354\212\250 \354\213\234\355\213\260"
        string_val: "\354\227\260\353\246\254\354\247\200"
        string_val: "\353\240\210\354\235\264\353\224\224 \354\235\270 \353\215\224 \354\233\214\355\204\260"
        string_val: "\353\247\210\354\235\264 \354\272\241\355\213\264 \352\271\200\353\214\200\354\266\234"
        string_val: "\354\225\204\354\271\230\354\231\200 \354\224\250\355\214\215"
        string_val: "\354\232\270\355\212\270\353\235\274\353\260\224\354\235\264\354\230\254\353\240\233"
        string_val: "\353\251\224\354\242\205 \353\223\234 \355\236\210\353\257\270\354\275\224"
        string_val: "\354\271\264\353\246\254\354\212\244\353\247\210 \355\203\210\354\266\234\352\270\260"
        string_val: "\355\215\274\355\226\205\354\212\244 \353\237\254\353\270\214"
        string_val: "\354\213\234\353\246\254\354\225\204\353\202\230"
        string_val: "\352\260\234\352\265\254\353\246\254\354\244\221\354\202\254 \354\274\200\353\241\234\353\241\234"
        string_val: "…"
        string_val: "…"
        string_val: "\355\224\214\353\235\274\354\235\264\355\212\27093"
        string_val: "…"
        string_val: "\354\235\264\354\230\250 \355\224\214\353\237\255\354\212\244"
        string_val: "\353\254\264\353\217\204\353\246\254"
        string_val: "\355\202\244\353\246\254\354\277\240, \355\202\244\353\246\254\354\277\240"
        string_val: "…"
        string_val: "…"
        string_val: "\354\212\244\354\234\231\352\261\270\354\246\210"
        string_val: "…"
        string_val: "\355\225\230\355\224\204 \353\235\274\354\235\264\355\212\270"
        string_val: "\353\237\254\353\213\235 \354\212\244\354\274\200\354\226\264\353\223\234"
        string_val: "\353\260\264\353\224\224\353\213\244\354\212\244"
        string_val: "\354\234\240\353\240\210\353\243\250"
        string_val: "\353\213\271\354\213\240\354\235\264 \352\267\270\353\205\200\353\235\274\353\251\264"
        string_val: "\354\231\200\354\235\274\353\223\234"
        string_val: "\353\254\264\354\247\200\352\260\234 \354\227\254\354\213\240"
        string_val: "\355\233\204\355\232\214\355\225\230\354\247\200 \354\225\212\354\225\204"
        string_val: "\355\201\254\353\246\275"
        string_val: "…"
        string_val: "\355\226\211\354\232\264\354\235\204 \353\217\214\353\240\244\354\244\230!"
        string_val: "\354\212\244\354\234\204\355\212\270 \353\243\270"
        string_val: "\354\225\210\354\206\214\353\213\210 \354\247\220\353\250\270"
        string_val: "\354\240\204\354\260\250\353\202\250"
        string_val: "\352\267\200\355\226\245"
        string_val: "\354\275\230\354\212\244\355\203\204\355\212\270 \352\260\200\353\223\234\353\204\210"
        string_val: "\355\217\255\353\240\245\354\215\250\355\201\264"
        string_val: "\354\210\230\353\251\264\354\235\230 \352\263\274\355\225\231"
        string_val: "…"
        string_val: "\355\201\264\353\246\274\355\212\270"
        string_val: "\354\227\220\354\235\264\355\212\270 \353\271\214\353\241\234\354\232\260"
        string_val: "\353\202\264 \353\202\250\354\236\220\354\235\230 \354\234\240\355\206\265\352\270\260\355\225\234"
        string_val: "\354\202\274\352\261\260\353\246\254\352\267\271\354\236\245"
        string_val: "\354\225\214\353\246\254\353\260\224\354\235\264"
        string_val: "\354\230\244\353\236\230\353\220\234 \354\240\225\354\233\220"
        string_val: "\353\202\264 \354\262\255\354\266\230\354\227\220\352\262\214 \352\263\240\355\225\250"
        string_val: "\355\203\200\354\236\204 \355\210\254 \353\246\254\353\270\214"
        string_val: "\353\205\270\354\212\244 \354\273\250\354\270\204\353\246\254"
        string_val: "\353\202\264 \352\263\201\354\227\220 \354\236\210\354\226\264\354\244\230"
        string_val: "\353\257\270\354\212\244 \353\246\254\355\213\200 \354\204\240\354\203\244\354\235\270"
        string_val: "…"
        string_val: "\353\260\225\354\271\230\352\270\260!"
        string_val: "\355\230\270\355\205\224 \353\245\264\354\231\204\353\213\244"
        string_val: "\354\235\264\353\213\210\354\205\234 D"
        string_val: "…"
        string_val: "\353\235\274\354\212\244\355\212\270 \355\202\244\354\212\244"
        string_val: "\353\224\224\354\233\214"
        string_val: "…"
        string_val: "\355\212\270\353\236\234\354\212\244\355\217\254\353\250\270 3"
        string_val: "…"
        string_val: "\355\212\270\353\236\234\354\212\244\355\217\254\353\250\270"
        string_val: "\355\231\224\353\240\244\355\225\234 \355\234\264\352\260\200"
        string_val: "\354\212\244\355\214\214\354\235\264\353\215\224\353\247\250 3"
        string_val: "…"
        string_val: "…"
        string_val: "…"
        string_val: "\352\267\270\353\206\210 \353\252\251\354\206\214\353\246\254"
        string_val: "\354\213\235\352\260\2352 : \352\271\200\354\271\230\354\240\204\354\237\201"
        string_val: "\354\213\235\352\260\235"
        string_val: "300: \354\240\234\352\265\255\354\235\230 \353\266\200\355\231\234"
        string_val: "300"
        string_val: "\354\212\210\353\240\2113"
        string_val: "1\353\262\210\352\260\200\354\235\230 \352\270\260\354\240\201"
        string_val: "\353\202\230\353\212\224 \354\240\204\354\204\244\354\235\264\353\213\244"
        string_val: "\355\231\251\352\270\210 \353\202\230\354\271\250\353\260\230"
        string_val: "\353\260\224\353\245\264\352\262\214 \354\202\264\354\236\220"
        string_val: "\352\267\271\353\235\275\353\217\204 \354\202\264\354\235\270\354\202\254\352\261\264"
        string_val: "\354\204\270\353\270\220 \353\215\260\354\235\264\354\246\210"
        string_val: "\352\261\270\354\226\264\353\217\204 \352\261\270\354\226\264\353\217\204"
        string_val: "\353\263\270 \354\226\274\355\213\260\353\251\224\354\235\264\355\205\200"
        string_val: "\354\226\264\352\261\260\354\212\244\355\212\270 \353\237\254\354\211\254"
        string_val: "\354\203\211, \352\263\204"
        string_val: "\353\260\224\353\236\214\355\224\274\352\270\260 \354\242\213\354\235\200 \353\202\240"
        string_val: "\354\203\211\354\246\211\354\213\234\352\263\265 \354\213\234\354\246\2142"
        string_val: "\353\260\200\354\226\221"
        string_val: "…"
        string_val: "\353\263\265\353\251\264\353\213\254\355\230\270"
        string_val: "\354\230\244\354\205\230\354\212\244 \354\215\250\355\213\264"
        string_val: "\352\266\201\353\205\200"
        string_val: "\352\262\200\354\235\200 \354\247\221"
        string_val: "\353\247\214\353\202\250\354\235\230 \352\264\221\354\236\245"
        string_val: "\354\246\220\352\261\260\354\232\264 \354\235\270\354\203\235"
        string_val: "\355\231\251\354\247\204\354\235\264"
        string_val: "\354\265\234\352\260\225\353\241\234\353\247\250\354\212\244"
        string_val: "\353\252\273\353\247\220\353\246\254\353\212\224 \352\262\260\355\230\274"
        string_val: "\354\235\264\354\236\245\352\263\274 \352\265\260\354\210\230"
        string_val: "\353\271\204\353\260\200\354\235\200 \354\227\206\353\213\244"
        string_val: "…"
        string_val: "…"
        string_val: "\353\235\274\353\224\260\353\232\234\354\235\264"
        string_val: "\353\262\240\354\230\244\354\232\270\355\224\204"
        string_val: "…"
        string_val: "\354\232\260\354\225\204\355\225\234 \354\204\270\352\263\204"
        string_val: "…"
        string_val: "\354\227\220\353\235\274\352\263\244"
        string_val: "\353\247\210\354\235\264 \355\214\214\353\215\224"
        string_val: "\354\203\201\354\202\254\353\266\200\354\235\274\354\262\264"
        string_val: "\353\202\264 \354\202\254\353\236\221 \353\202\264 \352\263\201\354\227\220"
        string_val: "\353\237\254\354\213\234 \354\225\204\354\233\214 3"
        string_val: "\353\223\234\353\246\274\352\261\270\354\246\210"
        string_val: "\353\221\220 \354\226\274\352\265\264\354\235\230 \354\227\254\354\271\234"
        string_val: "\353\246\254\355\225\221 10\352\260\234\354\235\230 \354\236\254\354\225\231"
        string_val: "\352\270\260\353\213\264"
        string_val: "\352\267\200 \351\254\274"
        string_val: "\355\226\211\353\263\265\354\235\204 \354\260\276\354\225\204\354\204\234"
        string_val: "\353\224\224\354\212\244\355\204\260\353\271\204\354\225\204"
        string_val: "\355\225\264\353\266\200\355\225\231 \352\265\220\354\213\244"
        string_val: "\354\235\274\353\243\250\354\205\224\353\213\210\354\212\244\355\212\270"
        string_val: "\354\233\224\353\223\234 \354\235\270\353\262\240\354\235\264\354\240\274"
        string_val: "\354\235\270\353\262\240\354\235\264\354\240\274"
        string_val: "\354\232\251\354\235\230\354\243\274\353\217\204 \353\257\270\354\212\244\354\213\240"
        string_val: "…"
        string_val: "…"
        string_val: "\353\215\224\353\270\224\355\203\200\352\262\237"
        string_val: "…"
        string_val: "…"
        string_val: "\354\225\250\353\271\210\352\263\274 \354\212\210\355\215\274\353\260\264\353\223\234"
        string_val: "\354\225\250\353\271\210\352\263\274 \354\212\210\355\215\274\353\260\264\353\223\2343"
        string_val: "\354\225\250\353\271\210\352\263\274 \354\212\210\355\215\274\353\260\264\353\223\2342"
        string_val: "\354\203\264"
        string_val: "…"
        string_val: "…"
        string_val: "\353\202\264\353\213\210 \353\213\244\354\235\264\354\226\264\353\246\254"
        string_val: "\354\234\240\354\225\204 \353\204\245\354\212\244\355\212\270"
        string_val: "\354\262\234\353\205\204\354\227\254\354\232\260 \354\227\254\354\232\260\353\271\204"
        string_val: "\354\202\254\354\232\270\354\235\230 \354\225\204\353\223\244"
        string_val: "\353\270\224\353\237\254\353\223\234 \353\213\244\354\235\264\354\225\204\353\252\254\353\223\234"
        string_val: "…"
        string_val: "\353\204\230\353\262\20423"
        string_val: "\353\202\240\354\225\204\353\235\274 \355\227\210\353\217\231\352\265\254"
        string_val: "\354\202\254\353\236\221\354\235\230 \353\240\210\354\213\234\355\224\274"
        string_val: "…"
        string_val: "…"
        string_val: "\352\263\240\354\212\244\355\212\270 \353\235\274\354\235\264\353\215\224"
        string_val: "\354\240\204\354\204\244\354\235\230 \352\263\240\355\226\245"
        string_val: "\354\213\270\354\233\200"
        string_val: "\354\227\264\355\225\234\353\262\210\354\247\270 \354\227\204\353\247\210"
        string_val: "\354\217\234\353\213\244"
        string_val: "\355\227\244\354\226\264\354\212\244\355\224\204\353\240\210\354\235\264"
        string_val: "\353\257\270\354\212\244 \355\217\254\355\204\260"
        string_val: "\354\203\254\353\241\257\354\235\230 \352\261\260\353\257\270\354\244\204"
        string_val: "\354\242\213\354\247\200 \354\225\204\353\213\210\355\225\234\352\260\200"
        string_val: "\354\212\244\354\271\264\354\232\260\355\212\270"
        string_val: "\352\261\270\354\212\244\354\271\264\354\232\260\355\212\270"
        string_val: "\353\254\265\352\263\265"
        string_val: "\354\204\234\355\225\221 \354\227\205"
        string_val: "\353\210\210\353\266\200\354\213\240 \353\202\240\354\227\220"
        string_val: "1408"
        string_val: "\355\225\234\353\213\210\353\260\234 \353\235\274\354\235\264\354\247\225"
        string_val: "…"
        string_val: "…"
        string_val: "…"
        string_val: "…"
        string_val: "\353\254\270\353\235\274\354\235\264\354\246\210 \355\202\271\353\215\244 "
        string_val: "\354\227\220\353\260\230 \354\230\254\353\247\210\354\235\264\355\213\260"
        string_val: "\353\224\224\354\204\274\355\212\270"
        string_val: "\353\224\224\354\204\274\355\212\270: Part 2"
        string_val: "…"
        string_val: "\353\221\220 \354\202\254\353\236\214\354\235\264\353\213\244"
        string_val: "\354\213\254\354\212\250\352\260\200\354\241\261, \353\215\224\353\254\264\353\271\204"
        string_val: "\353\271\204\354\273\244\353\260\215 \354\240\234\354\235\270"
        string_val: "\354\225\204\353\251\224\353\246\254\354\271\270 \352\260\261\354\212\244\355\204\260"
        string_val: "…"
        string_val: "\354\233\220\354\212\244"
        string_val: "\354\233\220\354\212\244\354\226\264\355\217\260\354\226\264\355\203\200\354\236\204"
        string_val: "\354\225\204\353\262\204\354\247\200\354\235\230 \352\271\203\353\260\234"
        string_val: "\354\210\230\354\226\264\354\202\254\354\235\264\353\223\234 \354\212\244\354\277\274\353\223\234"
        string_val: "\353\241\235\355\202\244 \353\260\234\353\263\264\354\225\204"
        string_val: "\353\213\214\354\236\220\352\261\260\353\266\201\354\235\264 TMNT"
        string_val: "\353\270\224\353\236\231\353\266\201"
        string_val: "\354\236\240\354\210\230\354\242\205\352\263\274 \353\202\230\353\271\204"
        string_val: "\353\215\224 \353\262\204\355\204\260\355\224\214\353\235\274\354\235\264"
        string_val: "\354\243\275\354\226\264\353\217\204 \355\225\264\355\224\274\354\227\224\353\224\251"
        string_val: "\355\227\250\354\240\244\352\263\274 \352\267\270\353\240\210\355\205\224"
        string_val: "\352\260\200\353\251\264"
        string_val: "\352\263\250\353\223\240 \354\227\220\354\235\264\354\247\200"
        string_val: "\354\241\260\353\224\224\354\225\205"
        string_val: "\354\260\250\354\235\264\353\213\210\354\246\210 \354\241\260\353\224\224\354\225\205"
        string_val: "\353\267\260\355\213\260\355\222\200 \354\204\240\353\215\260\354\235\264"
        string_val: "\353\257\200\354\235\264"
        string_val: "\355\236\210\355\212\270\353\247\250: \354\227\220\354\235\264\354\240\204\355\212\270 47"
        string_val: "\354\226\270\353\213\210\352\260\200 \352\260\204\353\213\244"
        string_val: "\353\270\214\353\240\210\354\235\264\353\270\214 \354\233\220"
        string_val: "\353\241\234\354\212\244\355\212\270 \353\235\274\354\235\264\354\230\250\354\246\210"
        string_val: "\355\203\235\354\213\234 4"
        string_val: "…"
        string_val: "\354\262\234\353\205\204\355\225\231"
        string_val: "\353\235\274\355\214\214\354\230\210\355\212\270"
        string_val: "\353\247\210\354\235\264\355\201\264 \355\201\264\353\240\210\354\235\264\355\212\274"
        string_val: "\353\271\274\352\274\274\354\235\230 \353\250\270\352\267\270\354\236\224 \354\227\254\355\226\211"
        string_val: "…"
        string_val: "\353\257\270\354\212\244\355\204\260 \353\270\214\353\243\251\354\212\244"
        string_val: "\354\211\254\354\246\210 \353\215\224 \353\247\250"
        string_val: "\353\270\224\353\236\231 \353\213\254\353\246\254\354\225\204"
        string_val: "\355\216\230\354\235\270\355\213\260\353\223\234 \353\262\240\354\235\274"
        string_val: "…"
        string_val: "\353\210\210\353\254\274\354\235\264 \354\243\274\353\243\251\354\243\274\353\243\251"
        string_val: "…"
        string_val: "\353\235\274 \353\271\204\354\225\231 \353\241\234\354\246\210"
        string_val: "\353\241\234\353\271\210\354\212\250 \352\260\200\354\241\261"
        string_val: "…"
        string_val: "…"
        string_val: "\354\225\204\353\223\234\353\240\210\353\202\240\353\246\26024"
        string_val: "\354\204\240\354\203\244\354\235\270 \354\230\250 \353\246\254\354\212\244"
        string_val: "\355\225\240\353\246\254\353\215\260\354\235\264"
        string_val: "\353\215\260\354\223\260 \355\224\204\353\243\250\355\224\204"
        string_val: "\352\265\277\354\205\260\355\215\274\353\223\234"
        string_val: "\353\234\250\352\261\260\354\232\264\353\205\200\354\204\235\353\223\244"
        string_val: "\353\202\264\354\235\274\354\235\230 \352\270\260\354\226\265"
        string_val: "…"
        string_val: "\353\215\260\354\212\244 \354\204\274\355\205\220\354\212\244 "
        string_val: "\353\270\214\353\235\274\353\263\264 \353\247\210\354\235\264 \353\235\274\354\235\264\355\224\204"
        string_val: "\353\215\260\354\212\244\354\233\214\355\204\260"
        string_val: "…"
        string_val: "\354\212\244\354\277\240\355\224\204"
        string_val: "\354\202\254\353\236\221\355\225\264, \355\214\214\353\246\254"
        string_val: "\354\213\234\352\260\204\354\235\204 \353\213\254\353\246\254\353\212\224 \354\206\214\353\205\200"
        string_val: "\354\262\231 \354\225\244 \353\236\230\353\246\254"
        string_val: "\355\233\214\353\235\274\352\261\270\354\212\244"
        string_val: "\353\247\210\355\225\230 2.6: \355\222\200\354\212\244\355\224\274\353\223\234"
        string_val: "…"
        string_val: "\355\203\200\354\235\270\354\235\230 \354\202\266"
        string_val: "\355\227\210\353\213\210\354\231\200 \355\201\264\353\241\234\353\262\204"
        string_val: "\355\231\251\354\203\211 \353\210\210\353\254\274"
        string_val: "\353\246\254\355\213\200 \353\237\254\353\204\210"
        string_val: "…"
        string_val: "\355\216\200\354\271\230\353\240\210\354\235\264\353\224\224"
        string_val: "\354\232\260\353\246\254 \355\225\231\352\265\220"
        string_val: "\355\203\234\354\226\221\354\235\230 \353\205\270\353\236\230"
        string_val: "\353\247\210\353\205\200\353\260\260\353\213\254\353\266\200 \355\202\244\355\202\244"
        string_val: "\353\240\214\355\212\270"
        string_val: "\354\264\210\354\206\2155\354\204\274\355\213\260\353\257\270\355\204\260"
        string_val: "…"
        string_val: "\352\270\260\353\213\244\353\246\254\353\213\244 \353\257\270\354\263\220"
        string_val: "\354\212\244\355\205\214\354\235\264\354\247\200 \353\267\260\355\213\260"
        string_val: "\354\224\250\353\205\270\354\235\264\353\270\224"
        string_val: "\354\262\253\353\210\210"
        string_val: "\355\214\251\355\206\240\353\246\254 \352\261\270 "
        string_val: "\353\246\254\353\262\204\355\213\264"
        string_val: "\355\217\254 \353\257\270\353\213\210\354\270\240"
        string_val: "\355\224\214\353\243\250\355\206\240\354\227\220\354\204\234 \354\225\204\354\271\250\354\235\204"
        string_val: "…"
        string_val: "\353\240\210\354\235\264\353\224\224 \354\261\204\355\204\270\353\246\254"
        string_val: "\354\235\264\353\270\214\353\213\235"
        string_val: "\355\216\204\354\212\244"
        string_val: "\353\270\214\353\246\254\354\271\230"
        string_val: "\353\247\210\353\262\225\354\227\220 \352\261\270\353\246\260 \354\202\254\353\236\221"
        string_val: "\353\247\210\353\246\254 \354\225\231\355\210\254\354\225\204\353\204\244\355\212\270"
        string_val: "…"
        string_val: "\354\266\224\352\262\251\354\236\220"
        string_val: "\354\277\265\355\221\270\355\214\254\353\215\2243"
        string_val: "\354\277\265\355\221\270 \355\214\254\353\215\224"
        string_val: "\354\277\265\355\221\270\355\214\254\353\215\224 2"
        string_val: "\353\247\230\353\247\210\353\257\270\354\225\204!"
        string_val: "\352\263\274\354\206\215\354\212\244\354\272\224\353\223\244"
        string_val: "\352\260\225\354\262\240\354\244\221: \352\263\265\352\263\265\354\235\230 \354\240\201 1-1"
        string_val: "\354\225\204\354\235\264\354\226\270\353\247\250 3"
        string_val: "\354\225\204\354\235\264\354\226\270\353\247\250 2"
        string_val: "\354\225\204\354\235\264\354\226\270\353\247\250"
        string_val: "…"
        string_val: "…"
        string_val: "\353\213\244\355\201\254 \353\202\230\354\235\264\355\212\270 \353\235\274\354\235\264\354\246\210"
        string_val: "\353\213\244\355\201\254 \353\202\230\354\235\264\355\212\270"
        string_val: "…"
        string_val: "\354\213\240\352\270\260\354\240\204"
        string_val: "\353\252\250\354\212\244\355\212\270 \354\233\220\355\213\260\353\223\234 \353\247\250"
        string_val: "\355\225\270\354\275\225"
        string_val: "\355\205\214\354\235\264\355\201\260 3"
        string_val: "\355\205\214\354\235\264\355\201\260 2"
        string_val: "\355\205\214\354\235\264\355\201\260"
        string_val: "\353\257\270\354\235\270\353\217\204"
        string_val: "\354\235\264\352\270\200 \354\225\204\354\235\264"
        string_val: "007 \355\200\200\355\205\200 \354\230\244\353\270\214 \354\206\224\353\237\254\354\212\244"
        string_val: "…"
        string_val: "\354\225\204\353\202\264\352\260\200 \352\262\260\355\230\274\355\226\210\353\213\244"
        string_val: "\353\213\230\354\235\200 \353\250\274 \352\263\263\354\227\220"
        string_val: "\354\240\220\355\215\274"
        string_val: "…"
        string_val: "\353\254\264\353\260\251\353\271\204\353\217\204\354\213\234"
        string_val: "…"
        string_val: "\353\215\224 \352\262\214\354\236\204"
        string_val: "…"
        string_val: "\354\233\224\343\206\215E"
        string_val: "\354\230\201\355\231\224\353\212\224 \354\230\201\355\231\224\353\213\244"
        string_val: "\354\247\200\352\265\254\352\260\200 \353\251\210\354\266\224\353\212\224 \353\202\240"
        string_val: "\354\235\264\355\201\264\353\246\275\354\212\244"
        string_val: "\353\211\264 \353\254\270"
        string_val: "\355\212\270\354\231\200\354\235\274\353\235\274\354\236\207"
        string_val: "\352\277\200\353\262\214\353\214\200\354\206\214\353\217\231"
        string_val: "…"
        string_val: "10,000 BC"
        string_val: "\353\262\274\353\236\221 \354\234\204\354\235\230 \355\217\254\353\207\250"
        string_val: "6\353\205\204\354\247\270 \354\227\260\354\225\240\354\244\221"
        string_val: "…"
        string_val: "…"
        string_val: "\354\204\271\354\212\244 \354\225\244 \353\215\224 \354\213\234\355\213\260 2"
        string_val: "\354\204\271\354\212\244 \354\225\244 \353\215\224 \354\213\234\355\213\260"
        string_val: "\354\202\274\352\265\255\354\247\200:\354\232\251\354\235\230 \353\266\200\355\231\234"
        string_val: "\353\260\264\355\213\260\354\247\200 \355\217\254\354\235\270\355\212\270"
        string_val: "\353\260\224\353\263\264"
        string_val: "\353\260\224\353\263\264\354\225\274"
        string_val: "\354\230\244\354\212\244\355\212\270\353\240\210\354\235\274\353\246\254\354\225\204"
        string_val: "GP 506"
        string_val: "\355\201\254\353\241\234\354\213\261"
        string_val: "\354\210\231\353\252\205"
        string_val: "\354\212\244\355\224\274\353\223\234 \353\240\210\354\235\264\354\204\234"
        string_val: "\353\252\250\353\215\230\353\263\264\354\235\264"
        string_val: "\354\210\234\354\240\225\353\247\214\355\231\224"
        string_val: "\353\271\204\354\212\244\355\213\260 \353\263\264\354\235\264\354\246\210"
        string_val: "…"
        string_val: "\353\213\230\354\212\244 \354\225\204\354\235\274\353\236\234\353\223\234"
        string_val: "…"
        string_val: "\354\262\234\354\235\274\354\235\230 \354\212\244\354\272\224\353\223\244"
        string_val: "…"
        string_val: "\354\232\270\355\225\231\352\265\220 \354\235\264\355\213\260"
        string_val: "\353\210\210\353\250\274\354\236\220\353\223\244\354\235\230 \353\217\204\354\213\234"
        string_val: "\355\230\270\355\212\274"
        string_val: "\352\263\240\352\263\240 70"
        string_val: "\353\260\224\353\224\224 \354\230\244\353\270\214 \353\235\274\354\235\264\354\246\210"
        string_val: "\353\234\250\352\261\260\354\232\264 \352\262\203\354\235\264 \354\242\213\354\225\204"
        string_val: "\355\201\264\353\241\234\353\262\204\355\225\204\353\223\234 10\353\262\210\354\247\200"
        string_val: "\355\201\264\353\241\234\353\262\204\355\225\204\353\223\234"
        string_val: "\353\261\205\355\201\254 \354\236\241"
        string_val: "…"
        string_val: "\353\257\270\354\223\260 \355\231\215\353\213\271\353\254\264"
        string_val: "…"
        string_val: "\354\226\264\354\233\250\354\235\264\355\201\254"
        string_val: "\354\214\215\355\231\224\354\240\220"
        string_val: "\353\213\254\354\275\244\355\225\234 \352\261\260\354\247\223\353\247\220"
        string_val: "\354\225\204\352\270\260\354\231\200 \353\202\230"
        string_val: "\353\251\213\354\247\204 \355\225\230\353\243\250"
        string_val: "\353\252\205\354\236\245"
        string_val: "\354\202\274\352\265\255\354\247\200: \353\252\205\354\236\245 \352\264\200\354\232\260"
        string_val: "\355\225\264\355\224\204\353\213\235"
        string_val: "…"
        string_val: "P.S. \354\225\204\354\235\264 \353\237\254\353\270\214 \354\234\240"
        string_val: "CJ7:\354\236\245\352\260\2257\355\230\270"
        string_val: "…"
        string_val: "…"
        string_val: "1724 \352\270\260\353\260\251\353\202\234\353\217\231\354\202\254\352\261\264"
        string_val: "88\353\266\204"
        string_val: "…"
        string_val: "\354\212\244\355\212\270\353\246\254\355\212\270 \355\202\271"
        string_val: "…"
        string_val: "\352\260\200\353\243\250\354\247\200\352\270\260"
        string_val: "\353\247\210\354\247\200\353\247\211 \354\204\240\353\254\274"
        string_val: "\353\247\210\354\235\264 \353\211\264 \355\214\214\355\212\270\353\204\210"
        string_val: "\353\247\245\354\212\244 \355\216\230\354\235\270"
        string_val: "…"
        string_val: "…"
        string_val: "…"
        string_val: "27\353\262\210\354\235\230 \352\262\260\355\230\274\353\246\254\355\227\210\354\204\244"
        string_val: "\353\260\224\353\271\214\353\241\240 A.D."
        string_val: "…"
        string_val: "\355\216\230\353\204\254\353\241\234\355\224\274"
        string_val: "\353\235\274\353\223\270\354\230\244 \353\215\260\354\235\264\354\246\210"
        string_val: "\355\202\254\354\234\204\353\223\234\353\257\270"
        string_val: "\353\214\200\355\225\234\354\235\264, \353\257\274\352\265\255\354\224\250"
        string_val: "\354\226\264\355\206\244\353\250\274\355\212\270"
        string_val: "\353\260\251\354\275\225 \353\215\260\354\235\270\354\240\200\353\237\254\354\212\244"
        string_val: "\353\217\204\353\240\210\353\257\270\355\214\214\354\206\224\353\235\274\354\213\234\353\217\204"
        string_val: "\354\227\260\354\235\230 \355\231\251\355\233\204"
        string_val: "\353\257\270\353\237\254"
        string_val: "\353\224\224\354\212\244\354\273\244\353\204\245\355\212\270"
        string_val: "\354\273\244\353\204\245\355\212\270"
        string_val: "20\354\204\270\352\270\260 \354\206\214\353\205\204"
        string_val: "…"
        string_val: "\352\262\237 \354\212\244\353\247\210\355\212\270"
        string_val: "\353\214\204 \354\235\270 \353\237\254\353\270\214"
        string_val: "…"
        string_val: "…"
        string_val: "\354\260\260\353\246\254\354\234\214\354\212\250\354\235\230 \354\240\204\354\237\201"
        string_val: "\353\215\260\354\212\244 \353\240\210\354\235\264\354\212\244"
        string_val: "…"
        string_val: "\355\231\224\355\224\274"
        string_val: "\353\213\210\354\275\224"
        string_val: "…"
        string_val: "\352\265\277\'\353\260\224\354\235\264"
        string_val: "\355\231\251\354\213\234"
        string_val: "…"
        string_val: "\354\212\210\355\215\274\355\236\210\354\226\264\353\241\234"
        string_val: "\355\224\204\353\235\274\354\235\264\354\212\244\353\246\254\354\212\244"
        string_val: "…"
        string_val: "…"
        string_val: "\352\262\237 \354\215\270"
        string_val: "\353\202\264\352\260\200 \354\210\250\354\211\254\353\212\224 \352\263\265\352\270\260"
        string_val: "\354\277\274\353\260\224\353\224\224\354\212\244"
        string_val: "\354\230\244\353\212\230"
        string_val: "\353\257\270\354\212\244\355\204\260 \353\205\270\353\260\224\353\224\224"
        string_val: "…"
        string_val: "…"
        string_val: "\354\233\214\355\204\260\355\230\270\354\212\244"
        string_val: "…"
        string_val: "\355\227\210\353\260\215"
        string_val: "…"
        string_val: "\353\247\220\355\225\240 \354\210\230 \354\227\206\353\212\224 \353\271\204\353\260\200"
        string_val: "\352\267\270 \353\202\250\354\236\220\354\235\230 \354\261\205 198\354\252\275"
        string_val: "…"
        string_val: "\355\214\250\354\206\224\353\241\234\354\247\200"
        string_val: "…"
        string_val: "\353\271\204\353\252\275"
        string_val: "\354\226\264\353\246\260\354\231\225\354\236\220"
        string_val: "\354\226\264\353\246\260 \354\231\225\354\236\220"
        string_val: "\353\240\233 \353\257\270 \354\235\270"
        string_val: "\354\225\214\354\235\264\354\224\250(Rec)"
        string_val: "100 \355\224\274\355\212\270"
        string_val: "\354\231\270\355\206\250\354\235\264"
        string_val: "\353\202\264 \354\271\234\352\265\254\354\235\230 \354\202\254\354\203\235\355\231\234"
        string_val: "\354\227\220\353\260\230\352\262\214\353\246\254\354\230\250 : \354\204\234(\345\272\217)"
        string_val: "…"
        string_val: "\353\215\224 \355\201\264\353\237\275"
        string_val: "\354\247\221\352\262\260\355\230\270"
        string_val: "…"
        string_val: "\354\234\204 \354\230\244\354\232\264 \353\215\224 \353\202\230\354\236\207"
        string_val: "\354\215\270\353\250\270 \354\206\224\354\212\244\355\213\260\354\212\244"
        string_val: "\353\217\231\355\202\244\355\230\270\355\205\214"
        string_val: "\354\243\274\353\205\270"
        string_val: "\355\212\270\353\241\234\355\224\275 \354\215\254\353\215\224 "
        string_val: "…"
        string_val: "\354\202\254\353\236\221\353\263\264\353\213\244 \355\231\251\352\270\210"
        string_val: "\355\235\221\354\213\254\353\252\250\353\205\200"
        string_val: "\354\226\270\353\215\224 \353\215\224 \354\216\204\354\236\204 \353\254\270"
        string_val: "\354\202\254\352\263\274"
        string_val: "…"
        string_val: "\354\226\270\353\215\224 \354\233\214\355\204\260"
        string_val: "\354\277\265\355\221\270 \353\215\251\355\201\254"
        string_val: "\354\204\234\354\232\270\354\235\264 \353\263\264\354\235\264\353\203\220"
        string_val: "3:10 \355\210\254 \354\234\240\353\247\210"
        string_val: "\354\212\244\353\247\210\355\212\270 \355\224\274\355\224\214"
        string_val: "\354\231\200\354\235\270 \353\257\270\353\235\274\355\201\264"
        string_val: "\353\210\204\353\223\244"
        string_val: "\353\217\204\355\231\224\354\204\240"
        string_val: "\352\265\254\352\265\254\353\212\224 \352\263\240\354\226\221\354\235\264\353\213\244"
        string_val: "\354\213\235\354\275\224"
        string_val: "…"
        string_val: "\353\271\204\355\210\254\354\212\244"
        string_val: "\355\224\274\354\225\204\353\205\270\354\235\230 \354\210\262"
        string_val: "\353\202\240\353\202\230\353\246\254 \354\242\205\353\266\200\354\240\204"
        string_val: "…"
        string_val: "…"
        string_val: "\353\270\214\353\240\210\354\235\264\353\270\214 \354\212\244\355\206\240\353\246\254"
        string_val: "\353\254\264\353\246\274\354\227\254\353\214\200\354\203\235"
        string_val: "\354\206\214\353\246\274\354\206\214\353\205\200"
        string_val: "\354\235\270 \353\270\224\353\243\270"
        string_val: "\354\225\204\354\236\204 \353\202\253 \353\215\260\354\226\264"
        string_val: "\353\202\250\354\243\274\352\270\260 \354\225\204\352\271\214\354\232\264 \352\267\270\353\205\200"
        string_val: "MR. \355\233\204\354\225\204\354\234\240"
        string_val: "\355\201\254\353\241\234\354\232\260\354\246\210 \354\240\234\353\241\234"
        string_val: "\354\227\260\354\235\204 \354\253\223\353\212\224 \354\225\204\354\235\264"
        string_val: "…"
        string_val: "\355\231\224\354\204\261\354\225\204\354\235\264, \354\247\200\352\265\254\354\225\204\353\271\240"
        string_val: "\355\224\214\353\236\230\353\213\233 \355\205\214\353\237\254"
        string_val: "\353\260\251\354\232\270\355\206\240\353\247\210\355\206\240"
        string_val: "\354\235\264\354\212\244\355\204\264 \355\224\204\353\235\274\353\257\270\354\212\244"
        string_val: "…"
        string_val: "\354\271\264\354\232\264\355\204\260\355\216\230\354\235\264\355\204\260"
        string_val: "\354\226\264\354\233\250\354\235\264 \355\224\204\353\241\254 \355\227\210"
        string_val: "…"
        string_val: "\354\266\224\354\240\201\354\236\220"
        string_val: "\354\236\245\352\263\240:\353\266\204\353\205\270\354\235\230 \354\266\224\354\240\201\354\236\220"
        string_val: "\355\205\220\355\205\220"
        string_val: "…"
        string_val: "\353\215\260\354\226\264 \354\234\214 \353\271\204 \353\270\224\353\237\254\353\223\234"
        string_val: "\352\267\270\353\240\210\354\235\264\354\213\234 \354\212\244\355\206\240\353\246\254"
        string_val: "\352\262\275\354\266\225! \354\232\260\353\246\254\354\202\254\353\236\221"
        string_val: "\355\225\240\353\236\214 \355\217\254"
        string_val: "…"
        string_val: "\355\216\230\353\245\264\354\204\270\355\217\264\353\246\254\354\212\244"
        string_val: "…"
        string_val: "\353\247\210\354\235\264 \354\216\204\354\213\234 \352\261\270"
        string_val: "\355\225\264\354\232\264\353\214\200"
        string_val: "\352\265\255\352\260\200\353\214\200\355\221\234 2"
        string_val: "\352\265\255\352\260\200\353\214\200\355\221\234"
        string_val: "\353\215\224 \355\227\214\355\212\270"
        string_val: "\354\225\204\353\260\224\355\203\200"
        string_val: "\354\225\204\353\260\224\355\203\200 \354\240\225\352\270\200\354\235\230 \353\271\204\353\260\200"
        string_val: "…"
        string_val: "…"
        string_val: "\352\261\260\353\266\201\354\235\264 \353\213\254\353\246\260\353\213\244"
        string_val: "\355\210\254 \353\247\210\353\215\224\354\212\244"
        string_val: "…"
        string_val: "\354\233\214\353\202\255\354\206\214\353\246\254"
        string_val: "…"
        string_val: "…"
        string_val: "\352\265\277\353\252\250\353\213\235 \355\224\204\353\240\210\354\247\200\353\215\230\355\212\270"
        string_val: "\354\240\204\354\232\260\354\271\230"
        string_val: "…"
        string_val: "\353\260\225\354\245\220"
        string_val: "…"
        string_val: "\354\225\240\354\236\220"
        string_val: "\352\267\270\353\246\274\354\236\220 \354\202\264\354\235\270"
        string_val: "\354\236\221\354\240\204\353\252\205 \353\260\234\355\202\244\353\246\254"
        string_val: "…"
        string_val: "\353\266\210\352\275\203\354\262\230\353\237\274 \353\202\230\353\271\204\354\262\230\353\237\274"
        string_val: "\354\234\240\352\260\220\354\212\244\353\237\254\354\232\264 \353\217\204\354\213\234"
        string_val: "\354\235\270\354\262\234\354\203\201\353\245\231\354\236\221\354\240\204"
        string_val: "…"
        string_val: "…"
        string_val: "\354\236\221\354\240\204"
        string_val: "\353\213\214\354\236\220 \354\226\264\354\214\224\354\213\240"
        string_val: "\354\262\255\353\213\264\353\263\264\354\202\264"
        string_val: "…"
        string_val: "\354\235\270\354\202\254\353\217\231 \354\212\244\354\272\224\353\223\244"
        string_val: "…"
        string_val: "\354\205\234\353\241\235 \355\231\210\354\246\210"
        string_val: "\354\212\254\353\237\274\353\217\205 \353\260\200\353\246\254\354\226\264\353\204\244\354\226\264"
        string_val: "…"
        string_val: "\353\205\270\354\236\211"
        string_val: "…"
        string_val: "\355\205\214\353\240\210\354\246\210 \353\235\274\354\272\245"
        string_val: "\353\260\261\354\225\274\355\226\211"
        string_val: "…"
        string_val: "…"
        string_val: "…"
        string_val: "\353\224\224\354\212\244\355\212\270\353\246\255\355\212\270 9"
        string_val: "\353\252\250\353\262\224\354\213\234\353\257\274"
        string_val: "\354\215\250\353\241\234\352\262\214\354\235\264\355\212\270"
        string_val: "\354\213\234\352\260\204 \354\227\254\355\226\211\354\236\220\354\235\230 \354\225\204\353\202\264"
        string_val: "\352\271\200\354\224\250\355\221\234\353\245\230\352\270\260"
        string_val: "\355\221\270\354\213\234"
        string_val: "…"
        string_val: "…"
        string_val: "\353\252\254\354\212\244\355\204\260 vs \354\227\220\354\235\264\353\246\254\354\226\270"
        string_val: "\354\227\254\352\263\240\352\264\264\353\213\264 5"
        string_val: "\354\240\225\354\212\271\355\225\204 \354\213\244\354\242\205\354\202\254\352\261\264"
        string_val: "…"
        string_val: "\355\225\270\353\223\234\355\217\260"
        string_val: "\355\231\215\352\270\270\353\217\231\354\235\230 \355\233\204\354\230\210"
        string_val: "\354\231\223\354\271\230\353\247\250"
        string_val: "…"
        string_val: "\354\235\264\355\203\234\354\233\220 \354\202\264\354\235\270\354\202\254\352\261\264"
        string_val: "\354\262\264\354\235\270\354\247\210\353\247\201"
        string_val: "\354\230\244\355\216\200: \354\262\234\354\202\254\354\235\230 \353\271\204\353\260\200"
        string_val: "\355\215\274\353\270\224\353\246\255 \354\227\220\353\204\210\353\257\270"
        string_val: "…"
        string_val: "\354\230\244\352\260\220\353\217\204"
        string_val: "\354\236\221\354\235\200 \354\230\201\354\233\205 \353\215\260\354\212\244\355\216\230\353\241\234"
        string_val: "10\354\226\265"
        string_val: "\353\223\234\353\236\230\352\263\244\353\263\274 \354\227\220\353\263\274\353\243\250\354\205\230"
        string_val: "…"
        string_val: "…"
        string_val: "\355\216\240\355\226\204 123"
        string_val: "…"
        string_val: "…"
        string_val: "\355\224\204\353\241\234\355\217\254\354\246\210 \353\215\260\354\235\264"
        string_val: "\355\224\204\353\241\234\355\217\254\354\246\210"
        string_val: "\353\235\274\354\212\244\355\212\270\355\224\204\353\241\234\355\217\254\354\246\210"
        string_val: "\354\226\264\352\270\200\353\246\254 \355\212\270\353\243\250\354\212\244"
        string_val: "\354\207\274\355\215\274\355\231\200\353\246\255"
        string_val: "\352\262\214\354\235\264\353\250\270"
        string_val: "\354\243\274\354\230\250-\354\233\220\355\230\274\354\235\230 \353\266\200\355\231\234"
        string_val: "\355\230\270\354\232\260\354\213\234\354\240\210"
        string_val: "\353\223\234\353\236\230\352\267\270 \353\257\270 \355\210\254 \355\227\254"
        string_val: "\354\232\224\352\260\200\355\225\231\354\233\220"
        string_val: "\353\266\210\354\213\240\354\247\200\354\230\245"
        string_val: "…"
        string_val: "\354\235\270\355\204\260\353\202\264\354\205\224\353\204\220"
        string_val: "\354\204\270\353\270\220 \355\214\214\354\232\264\354\246\210"
        string_val: "\353\224\224\355\214\214\354\235\264\354\226\270\354\212\244"
        string_val: "…"
        string_val: "…"
        string_val: "\354\232\260\353\246\254 \354\247\221\354\227\220 \354\231\234 \354\231\224\353\213\210"
        string_val: "…"
        string_val: "\353\247\220\353\246\254\354\231\200 \353\202\230"
        string_val: "13\354\235\274\354\235\230 \352\270\210\354\232\224\354\235\274"
        string_val: "\354\275\224\354\275\224 \354\203\244\353\204\254"
        string_val: "…"
        string_val: "\353\262\240\353\223\234\355\203\200\354\236\204 \354\212\244\355\206\240\353\246\254"
        string_val: "\354\271\264\354\230\244\354\212\244"
        string_val: "…"
        string_val: "\355\214\254\353\217\204\353\237\274"
        string_val: "\353\266\200\354\202\260\355\226\211"
        string_val: "4\353\223\261"
        string_val: "…"
        string_val: "…"
        string_val: "…"
        string_val: "\355\216\234\355\212\270\355\225\230\354\232\260\354\212\244 \354\275\224\353\201\274\353\246\254"
        string_val: "\355\202\244\354\271\234"
        string_val: "\352\267\270\353\236\234 \355\206\240\353\246\254\353\205\270"
        string_val: "\354\215\270\353\250\270 \354\233\214\354\246\210"
        string_val: "\353\247\201\354\212\244 \354\226\264\353\223\234\353\262\244\354\262\230"
        string_val: "\355\214\214\354\243\274"
        string_val: "\353\270\224\353\237\254\353\224\224 \353\260\234\353\240\214\355\203\200\354\235\270"
        string_val: "…"
        string_val: "\353\230\245\355\214\214\353\246\254"
        string_val: "\354\206\224\353\241\234\354\235\264\354\212\244\355\212\270"
        string_val: "\353\246\254\355\213\200 \353\271\204\353\262\204"
        string_val: "\354\206\214\355\224\274\354\235\230 \354\227\260\354\225\240 \353\247\244\353\211\264\354\226\274"
        string_val: "\353\247\210\354\235\264 \354\213\234\354\212\244\355\204\260\354\246\210 \355\202\244\355\215\274"
        string_val: "\353\202\230\353\212\224 \352\260\210\353\247\244\352\270\260"
        string_val: "\355\225\230\354\235\264 \353\240\210\354\235\270"
        string_val: "\354\227\275\353\254\2703: \354\265\234\355\233\204\354\235\230 \353\214\200\352\262\260"
        string_val: "\354\227\275\353\254\2702"
        string_val: "\354\213\240\353\266\200\353\223\244\354\235\230 \354\240\204\354\237\201"
        string_val: "\352\261\270\355\224\204\353\240\214\354\246\210"
        string_val: "\354\225\214\355\214\214\353\217\205"
        string_val: "9:\353\202\230\354\235\270"
        string_val: "\354\206\214\353\252\205"
        string_val: "\354\206\214\353\252\205 \355\225\230\353\212\230\354\235\230 \353\263\204"
        string_val: "…"
        string_val: "…"
        string_val: "\354\262\234\352\265\255\354\235\230 \354\232\260\355\216\270\353\260\260\353\213\254\353\266\200"
        string_val: "S\353\237\254\353\262\204"
        string_val: "\354\232\251\354\235\230\354\236\220 X\354\235\230 \355\227\214\354\213\240"
        string_val: "\354\231\274\355\216\270 \353\247\210\354\247\200\353\247\211 \354\247\221"
        string_val: "\353\211\264\354\232\225 \354\225\204\354\235\264 \353\237\254\353\270\214 \354\234\240"
        string_val: "\353\235\274\353\245\264\352\263\240 \354\234\210\354\271\230"
        string_val: "\353\257\270\354\223\260 \353\243\250\354\213\234\355\236\220"
        string_val: "\353\251\224\353\224\224\354\227\204"
        string_val: "\353\202\230\354\235\230 \353\241\234\353\247\250\355\213\261 \352\260\200\354\235\264\353\223\234"
        string_val: "\353\270\224\353\243\270 \355\230\225\354\240\234 \354\202\254\352\270\260\353\213\250"
        string_val: "\353\223\234\353\246\274\354\227\205"
        string_val: "4\352\265\220\354\213\234 \354\266\224\353\246\254\354\230\201\354\227\255"
        string_val: "…"
        string_val: "\354\227\220\353\260\230\352\262\214\353\246\254\354\230\250: \355\214\214"
        string_val: "\353\215\224 \353\240\210\354\212\254\353\237\254"
        string_val: "\353\240\210\353\263\274\353\243\250\354\205\224\353\204\210\353\246\254 \353\241\234\353\223\234"
        string_val: "\355\202\254\353\237\254\353\223\244\354\235\230 \353\217\204\354\213\234"
        string_val: "\353\202\264 \353\210\210\354\227\220 \354\275\251\352\271\215\354\247\200"
        string_val: "\355\202\254 \353\257\270"
        string_val: "\353\215\224\353\270\224 \354\212\244\355\214\214\354\235\264"
        string_val: "…"
        string_val: "\354\227\220\354\275\224"
        string_val: "…"
        string_val: "\354\240\234\353\217\205\354\235\230 \354\227\260\354\235\270"
        string_val: "\353\266\200\352\267\270\354\231\200 \354\227\230\353\246\254\354\227\207 2"
        string_val: "\353\271\204\354\271\264\354\235\270\353\223\234 \353\246\254\354\231\200\354\235\270\353\223\234"
        string_val: "\354\213\240\354\243\274\354\277\240 \354\202\254\352\261\264"
        string_val: "\353\247\244\353\236\200\353\260\251"
        string_val: "\353\270\224\353\240\210\354\236\204 : \354\235\270\353\245\230\353\251\270\353\247\235 2011"
        string_val: "\353\262\210 \354\225\240\355\224\204\355\204\260 \353\246\254\353\224\251"
        string_val: "…"
        string_val: "…"
        string_val: "\354\236\230 \354\225\214\354\247\200\353\217\204 \353\252\273\355\225\230\353\251\264\354\204\234"
        string_val: "…"
        string_val: "…"
        string_val: "\353\247\210\353\262\225\354\235\230 \354\204\270\352\263\204 \353\205\271\355\204\260\353\202\230"
        string_val: "\354\236\204\355\224\274 \354\233\220\353\215\224\353\236\234\353\223\234 \352\260\200\353\213\244"
        string_val: "19-Nineteen"
        string_val: "…"
        string_val: "\354\230\271\353\260\225: \353\215\224 \353\240\210\354\240\204\353\223\234"
        string_val: "…"
        string_val: "…"
        string_val: "\354\226\270\353\205\270\354\232\264 \354\232\260\353\250\274"
        string_val: "…"
        string_val: "\354\244\204\353\246\254 & \354\244\204\353\246\254\354\225\204"
        string_val: "\353\237\254\353\270\214 \354\235\270 \355\201\264\353\235\274\354\232\260\354\246\210"
        string_val: "\353\202\256\354\210\240"
        string_val: "\354\273\264 \354\225\204\354\233\203 \355\214\214\354\235\264\355\214\205"
        string_val: "\354\225\204\353\266\200\354\247\200"
        string_val: "\355\225\264\355\224\274 \355\224\214\353\235\274\354\235\264\355\212\270"
        string_val: "\354\211\230 \354\234\204 \355\202\244\354\212\244"
        string_val: "\355\224\204\353\241\234\354\212\244\355\212\270 VS \353\213\211\354\212\250"
        string_val: "…"
        string_val: "…"
        string_val: "\354\213\270\354\235\264\353\263\264\352\267\270 \352\267\270\353\205\200"
        string_val: "\353\202\240\354\225\204\353\235\274 \355\216\255\352\267\204"
        string_val: "\354\264\210\354\275\224\354\264\210\354\275\224 \353\214\200\354\236\221\354\240\204"
        string_val: "\355\200\270 \353\235\275 \353\252\254\355\212\270\353\246\254\354\230\254"
        string_val: "\354\233\220 \354\234\204\355\201\254"
        string_val: "…"
        string_val: "\355\225\230\353\212\230\352\263\274 \353\260\224\353\213\244"
        string_val: "\354\227\254\355\226\211\354\236\220"
        string_val: "\353\217\204\354\277\204 \353\247\210\353\270\224 \354\264\210\354\275\234\353\246\277"
        string_val: "…"
        string_val: "…"
        string_val: "\353\270\214\353\241\234\355\201\260 \354\236\204\353\270\214\353\240\210\354\235\264\354\212\244"
        string_val: "…"
        string_val: "\355\224\214\353\236\230\352\267\270 \353\215\224 \353\254\270"
        string_val: "\353\215\224 \353\254\270"
        string_val: "…"
        string_val: "\353\257\270\354\226\264\354\272\243\354\235\230 \353\252\250\355\227\230"
        string_val: "\355\214\220\355\203\200\354\212\244\355\213\261 Mr. \355\217\255\354\212\244"
        string_val: "\354\232\224\354\213\234\353\205\270 \354\235\264\353\260\234\352\264\200"
        string_val: "\353\213\244\354\232\260\355\212\270"
        string_val: "…"
        string_val: "\354\204\270\353\271\204\354\247\200 \352\267\270\353\240\210\354\235\264\354\212\244"
        string_val: "\353\262\250\353\235\274"
        string_val: "\354\204\270\353\235\274\355\225\200"
        string_val: "…"
        string_val: "\355\227\254\353\241\234\354\232\260 \353\247\210\354\235\264 \353\237\254\353\270\214"
        string_val: "\353\266\201\352\267\271\354\235\230 \353\210\210\353\254\274"
        string_val: "\354\225\204\354\240\200\354\224\250"
        string_val: "…"
        string_val: "\354\235\270\354\205\211\354\205\230"
        string_val: "\354\235\264\353\201\274"
        string_val: "\355\217\254\355\231\224\354\206\215\354\234\274\353\241\234"
        string_val: "\355\225\230\353\252\250\353\213\210"
        string_val: "\353\260\251\354\236\220\354\240\204"
        string_val: "\354\206\224\355\212\270"
        string_val: "\353\266\200\353\213\271\352\261\260\353\236\230"
        string_val: "\354\213\234\353\235\274\353\205\270; \354\227\260\354\225\240\354\241\260\354\236\221\353\213\250"
        string_val: "\355\203\200\354\235\264\355\203\204\354\235\230 \353\266\204\353\205\270"
        string_val: "\355\203\200\354\235\264\355\203\204"
        string_val: "\353\223\234\353\236\230\352\263\244 \352\270\270\353\223\244\354\235\264\352\270\260 2"
        string_val: "\353\223\234\353\236\230\352\263\244 \352\270\270\353\223\244\354\235\264\352\270\260"
        string_val: "…"
        string_val: "\355\225\230\353\205\200"
        string_val: "\354\226\264\353\212\220 \355\225\230\353\205\200\354\235\230 \354\235\274\352\270\260"
        string_val: "\353\202\230\354\236\207&\353\215\260\354\235\264"
        string_val: "\354\212\210\353\240\211 \355\217\254\354\227\220\353\262\204"
        string_val: "…"
        string_val: "\354\264\210\353\212\245\353\240\245\354\236\220"
        string_val: "\354\251\250\354\251\250\355\225\234 \353\241\234\353\247\250\354\212\244"
        string_val: "…"
        string_val: "…"
        string_val: "\353\254\264\354\240\201\354\236\220"
        string_val: "\355\231\251\355\225\264"
        string_val: "\355\206\240\354\235\264 \354\212\244\355\206\240\353\246\254 3"
        string_val: "…"
        string_val: "\353\235\274\354\212\244\355\212\270 \354\227\220\354\226\264\353\262\244\353\215\224"
        string_val: "\355\227\254\353\241\234\354\232\260 \352\263\240\354\212\244\355\212\270"
        string_val: "\354\234\241\355\230\210\355\217\254 \352\260\225\353\217\204\353\213\250"
        string_val: "\354\213\254\354\225\274\354\235\230 F.M."
        string_val: "…"
        string_val: "…"
        string_val: "\354\232\251\354\204\234\353\212\224 \354\227\206\353\213\244"
        string_val: "\353\262\240\354\212\244\355\212\270\354\205\200\353\237\254"
        string_val: "\352\271\200\354\242\205\354\232\261 \354\260\276\352\270\260"
        string_val: "\353\247\210\353\243\250 \353\260\221 \354\225\204\353\246\254\354\227\220\355\213\260"
        string_val: "\354\212\210\355\215\274\353\260\260\353\223\234 2"
        string_val: "\354\212\210\355\215\274  \353\260\260\353\223\234"
        string_val: "\355\214\214\352\264\264\353\220\234 \354\202\254\353\202\230\354\235\264"
        string_val: "\353\260\251\352\260\200? \353\260\251\352\260\200!"
        string_val: "\355\217\211\355\226\211\354\235\264\353\241\240"
        string_val: "\355\210\254\354\226\264\353\246\254\354\212\244\355\212\270"
        string_val: "\354\212\244\354\271\264\354\235\264 \353\235\274\354\235\270"
        string_val: "…"
        string_val: "A-\355\212\271\352\263\265\353\214\200"
        string_val: "\354\243\274\354\234\240\354\206\214 \354\212\265\352\262\251\354\202\254\352\261\264 2"
        string_val: "\353\247\210\354\235\214\354\235\2642"
        string_val: "…"
        string_val: "…"
        string_val: "\354\203\210\353\257\270\354\235\230 \354\226\264\353\223\234\353\262\244\354\263\220 2"
        string_val: "\354\203\210\353\257\270\354\235\230 \354\226\264\353\223\234\353\262\244\354\263\220"
        string_val: "\354\230\244\354\205\230\354\212\244"
        string_val: "…"
        string_val: "\354\235\264\354\270\265\354\235\230 \354\225\205\353\213\271"
        string_val: "\352\267\270\353\246\260 \354\241\264"
        string_val: "\353\260\230\352\260\200\354\232\264 \354\202\264\354\235\270\354\236\220"
        string_val: "\353\240\210\355\204\260\354\212\244 \355\210\254 \354\244\204\353\246\254\354\227\243"
        string_val: "\355\200\264\354\246\210\354\231\225"
        string_val: "\353\247\210\353\262\225\354\202\254\354\235\230 \354\240\234\354\236\220"
        string_val: "\353\235\274\354\212\244\355\212\270 \352\260\223\355\214\214\353\215\224"
        string_val: "\354\206\214\354\205\234 \353\204\244\355\212\270\354\233\214\355\201\254"
        string_val: "\355\224\274\353\235\274\353\203\220 3DD"
        string_val: "\355\224\274\353\235\274\353\203\220"
        string_val: "…"
        string_val: "\353\266\210\353\237\211\353\202\250\353\205\200"
        string_val: "\354\271\234\354\240\225\354\227\204\353\247\210"
        string_val: "…"
        string_val: "\354\226\270\354\212\244\355\206\240\355\215\274\353\270\224"
        string_val: "…"
        string_val: "\355\214\214\353\235\274\353\205\270\353\247\220 \354\225\241\355\213\260\353\271\204\355\213\260"
        string_val: "\355\214\214\353\235\274\353\205\270\353\247\220 \354\225\241\355\213\260\353\271\204\355\213\2604"
        string_val: "…"
        string_val: "…"
        string_val: "\354\233\214\353\246\254\354\226\264\354\212\244 \354\233\250\354\235\264"
        string_val: "…"
        string_val: "\354\235\265\354\212\244\355\216\234\353\215\224\353\270\224 3"
        string_val: "\354\235\265\354\212\244\355\216\234\353\215\224\353\270\224 2"
        string_val: "\354\235\265\354\212\244\355\216\234\353\215\224\353\270\224"
        string_val: "\352\263\265\354\236\220 \354\266\230\354\266\224\354\240\204\352\265\255\354\213\234\353\214\200"
        string_val: "…"
        string_val: "\353\270\224\353\235\274\354\235\270\353\223\234 \354\202\254\354\235\264\353\223\234"
        string_val: "\353\247\250\353\260\234\354\235\230 \352\277\210"
        string_val: "\352\260\200\353\224\224\354\226\270\354\235\230 \354\240\204\354\204\244"
        string_val: "\353\262\240\354\212\244\355\212\270 \355\202\244\353\223\234"
        string_val: "\355\224\204\353\240\210\353\215\260\355\204\260\354\212\244"
        string_val: "\354\232\270\355\224\204\353\247\250"
        string_val: "\354\232\270\354\247\200\353\247\210, \355\206\244\354\246\210"
        string_val: "…"
        string_val: "…"
        string_val: "…"
        string_val: "\354\202\254\353\236\221\354\235\200 \353\204\210\353\254\264 \353\263\265\354\236\241\355\225\264"
        string_val: "\355\217\220\352\260\200"
        string_val: "\355\217\254\354\212\244 \354\271\264\354\235\270\353\223\234"
        string_val: "\354\223\260\353\246\254\353\215\260\354\235\264\354\246\210 \355\210\254 \355\202\254"
        string_val: "\354\223\260\353\246\254 \353\215\260\354\235\264\354\246\210"
        string_val: "\353\237\254\353\270\224\353\246\254 \353\263\270\354\246\210"
        string_val: "…"
        string_val: "…"
        string_val: "\352\274\254\353\247\210 \353\213\210\354\275\234\353\235\274"
        string_val: "\353\224\224\354\226\264 \354\241\264"
        string_val: "\354\234\240\353\240\271\354\236\221\352\260\200"
        string_val: "…"
        string_val: "\355\227\210\355\212\270 \353\241\234\354\273\244"
        string_val: "…"
        string_val: "\352\267\270\353\236\221\355\224\204\353\246\254"
        string_val: "\354\212\244\355\224\214\353\235\274\354\235\264\354\212\244"
        string_val: "…"
        string_val: "\353\254\264\353\262\225\354\236\220"
        string_val: "\355\232\214\353\263\265"
        string_val: "…"
        string_val: "…"
        string_val: "\353\215\260\354\235\264\353\270\214\353\240\210\354\235\264\354\273\244\354\212\244"
        string_val: "\355\212\270\353\241\240: \354\203\210\353\241\234\354\232\264 \354\213\234\354\236\221"
        string_val: "\354\230\244\354\205\230\354\233\224\353\223\234 3D"
        string_val: "\353\221\220 \354\227\254\354\236\220"
        string_val: "22 \353\270\224\353\240\233"
        string_val: "…"
        string_val: "\354\212\244\355\212\270\353\246\254\355\212\270\353\214\204\354\212\244"
        string_val: "\353\256\254\353\236\200: \354\240\204\354\202\254\354\235\230 \352\267\200\355\231\230"
        string_val: "\354\206\224\353\241\234\353\252\254 \354\274\200\354\235\270"
        string_val: "…"
        string_val: "\354\225\240\355\224\204\355\204\260 \353\235\274\354\235\264\355\224\204"
        string_val: "007 \354\212\244\355\216\231\355\204\260"
        string_val: "…"
        string_val: "8\354\235\270: \354\265\234\355\233\204\354\235\230 \352\262\260\354\202\254\353\213\250"
        string_val: "…"
        string_val: "\353\215\224 \354\275\230\354\204\234\355\212\270"
        string_val: "\354\272\243\354\270\240 \354\225\244 \353\217\205\354\212\244 2"
        string_val: "…"
        string_val: "\354\225\204\353\247\210\354\241\264\354\235\230 \353\210\210\353\254\274"
        string_val: "\352\263\265\354\243\274\354\231\200 \352\260\234\352\265\254\353\246\254"
        string_val: "\353\235\274\354\212\244\355\212\270 \354\227\221\354\206\214\354\213\234\354\246\230"
        string_val: "\352\277\210\354\235\200 \354\235\264\353\243\250\354\226\264\354\247\204\353\213\244"
        string_val: "\353\214\200\353\263\221\354\206\214\354\236\245"
        string_val: "\355\225\204\353\246\275\353\252\250\353\246\254\354\212\244"
        string_val: "\353\205\270\353\213\244\353\251\224 \354\271\270\355\203\200\353\271\214\353\240\210 Vol.1 "
        string_val: "\354\260\270\354\235\204 \354\210\230 \354\227\206\353\212\224"
        string_val: "\354\204\274\354\270\204\353\246\254\354\230\250"
        string_val: "\354\243\274\353\254\270\354\247\204"
        string_val: "\353\217\214\354\235\264\355\202\254 \354\210\230 \354\227\206\353\212\224"
        string_val: "\354\227\254\353\214\200\354\203\235 \352\270\260\354\210\231\354\202\254"
        string_val: "\353\262\240\353\246\254\353\223\234"
        string_val: "…"
        string_val: "\354\227\220\353\270\214\353\246\254\353\260\224\353\224\224 \354\230\254\353\235\274\354\236\207"
        string_val: "\353\223\200 \353\215\260\354\235\264\355\212\270"
        string_val: "\353\214\200\354\247\200\354\247\204"
        string_val: "…"
        string_val: "\354\235\270 \353\224\224 \354\227\220\354\226\264"
        string_val: "…"
        string_val: "\355\202\254\353\237\254 \354\235\270\354\202\254\354\235\264\353\223\234 \353\257\270"
        string_val: "\355\224\214\353\236\230\353\213\233 51"
        string_val: "\355\225\230\353\202\230\354\231\200 \353\257\270\354\206\214\354\213\234\353\243\250"
        string_val: "…"
        string_val: "…"
        string_val: "\354\230\245\355\235\254\354\235\230 \354\230\201\355\231\224"
        string_val: "\354\234\204\355\225\217"
        string_val: "…"
        string_val: "…"
        string_val: "\355\216\230\354\226\264\353\237\254\353\270\214"
        string_val: "…"
        string_val: "\354\247\221 \353\202\230\354\230\250 \353\202\250\354\236\220\353\223\244"
        string_val: "…"
        string_val: "\354\230\210\354\226\270\354\236\220"
        string_val: "…"
        string_val: "\354\202\254\354\232\224\353\202\230\353\235\274 \354\235\264\354\270\240\354\271\264"
        string_val: "\354\225\204\353\251\224\353\246\254\354\271\270 \355\227\210\354\212\254"
        string_val: "\354\225\204\353\251\224\353\246\254\354\271\270 \354\232\270\355\212\270\353\235\274"
        string_val: "…"
        string_val: "\355\206\240\353\204\210\353\250\274\355\212\270"
        string_val: "\354\275\234\353\247\201 \354\235\270 \353\237\254\353\270\214"
        string_val: "…"
        string_val: "\354\213\254\354\236\245\354\235\264 \353\233\264\353\213\244"
        string_val: "\354\225\240\355\224\204\355\204\260 \353\237\254\353\270\214"
        string_val: "\354\213\261\352\270\200\353\247\250"
        string_val: "…"
        string_val: "…"
        string_val: "\354\262\255\354\204\244"
        string_val: "\355\205\214\354\235\264\355\202\271 \354\232\260\353\223\234\354\212\244\355\203\201"
        string_val: "\353\260\200\355\201\254"
        string_val: "\352\263\265\352\270\260\354\235\270\355\230\225"
        string_val: "…"
        string_val: "\353\257\277\354\235\214\354\235\230 \354\212\271\353\266\200"
        string_val: "…"
        string_val: "\355\225\230\354\226\200\353\246\254\353\263\270"
        string_val: "\354\240\234\353\241\234 \355\217\254\354\273\244\354\212\244"
        string_val: "\354\241\260\352\270\210\353\247\214 \353\215\224 \352\260\200\352\271\214\354\235\264"
        string_val: "…"
        string_val: "…"
        string_val: "\354\206\214\353\235\274\353\213\214"
        string_val: "\354\266\244\354\266\224\353\212\224 \352\277\210\355\213\200\354\235\264 \353\260\264\353\223\234"
        string_val: "\353\202\264 \353\202\250\354\236\220\354\235\230 \354\210\234\354\235\264"
        string_val: "…"
        string_val: "\354\205\211\355\205\234\353\262\204 \354\235\264\354\212\210"
        string_val: "\354\265\234\354\242\205\353\263\221\352\270\260 \355\231\234"
        string_val: "\354\215\250\353\213\210"
        string_val: "\354\231\204\353\223\235\354\235\264"
        string_val: "…"
        string_val: "…"
        string_val: "\353\217\204\352\260\200\353\213\210"
        string_val: "…"
        string_val: "\353\246\254\354\226\274 \354\212\244\355\213\270"
        string_val: "…"
        string_val: "\355\200\265"
        string_val: "\352\263\240\354\247\200\354\240\204"
        string_val: "\354\230\244\354\213\271\355\225\234 \354\227\260\354\225\240"
        string_val: "…"
        string_val: "\354\234\204\355\227\230\355\225\234 \354\203\201\352\262\254\353\241\200"
        string_val: "\354\234\204\355\227\230\355\225\234 \354\203\201\352\262\254\353\241\200 2"
        string_val: "…"
        string_val: "\354\235\230\353\242\260\354\235\270"
        string_val: "…"
        string_val: "\353\270\224\353\235\274\354\235\270\353\223\234"
        string_val: "\355\216\230\354\235\264\354\212\244 \353\270\224\353\235\274\354\235\270\353\223\234"
        string_val: "7\352\264\221\352\265\254"
        string_val: "\353\247\210\353\213\271\354\235\204 \353\202\230\354\230\250 \354\225\224\355\203\211"
        string_val: "\355\217\211\354\226\221\354\204\261"
        string_val: "\355\206\240\353\245\264: \354\262\234\353\221\245\354\235\230 \354\213\240"
        string_val: "\352\267\270\353\214\200\353\245\274 \354\202\254\353\236\221\355\225\251\353\213\210\353\213\244"
        string_val: "…"
        string_val: "\353\247\210\354\235\264 \354\233\250\354\235\264"
        string_val: "\353\270\214\353\240\210\354\235\264\355\202\271 \353\215\230 part1"
        string_val: "…"
        string_val: "\354\213\240\353\223\244\354\235\230 \354\240\204\354\237\201"
        string_val: "\354\206\214\354\212\244 \354\275\224\353\223\234"
        string_val: "\355\212\271\354\210\230\353\263\270"
        string_val: "\354\210\230\354\203\201\355\225\234 \352\263\240\352\260\235\353\223\244"
        string_val: "\354\230\244\354\247\201 \352\267\270\353\214\200\353\247\214"
        string_val: "\352\260\234\352\265\254\354\237\201\354\235\264 \354\212\244\353\250\270\355\224\204 2"
        string_val: "\352\260\234\352\265\254\354\237\201\354\235\264 \354\212\244\353\250\270\355\224\204"
        string_val: "\353\235\274\355\221\274\354\240\244"
        string_val: "\355\214\214\355\215\274\354\224\250\353\204\244 \355\216\255\352\267\204\353\223\244"
        string_val: "\353\251\224\352\260\200\353\247\210\354\235\270\353\223\234"
        string_val: "\354\262\264\355\217\254\354\231\225"
        string_val: "\353\247\214\354\266\224"
        string_val: "\355\202\271\354\212\244 \354\212\244\355\224\274\354\271\230"
        string_val: "…"
        string_val: "…"
        string_val: "\355\221\270\353\245\270\354\206\214\352\270\210"
        string_val: "\355\222\215\354\202\260\352\260\234"
        string_val: "\355\206\265\354\246\235"
        string_val: "…"
        string_val: "\354\202\274\354\264\235\354\202\254 3D"
        string_val: "\354\225\204\354\235\264 \354\227\240 \353\204\230\353\262\204 \355\217\254"
        string_val: "…"
        string_val: "…"
        string_val: "\353\250\270\353\213\210\353\263\274"
        string_val: "\354\225\204\353\215\224 \355\201\254\353\246\254\354\212\244\353\247\210\354\212\244"
        string_val: "\354\235\270 \355\203\200\354\236\204"
        string_val: "\354\275\234\353\241\254\353\271\204\354\225\204\353\202\230"
        string_val: "\353\204\210\353\212\224 \355\216\253"
        string_val: "\354\261\224\355\224\204"
        string_val: "\355\215\274\354\212\244\355\212\270 \354\226\264\353\262\244\354\240\270"
        string_val: "\354\212\210\355\215\274 \354\227\220\354\235\264\355\212\270"
        string_val: "\354\271\264\354\232\264\355\212\270\353\213\244\354\232\264"
        string_val: "…"
        string_val: "\354\271\264 2"
        string_val: "\354\203\235\355\205\200"
        string_val: "\354\204\270 \354\226\274\352\260\204\354\235\264"
        string_val: "…"
        string_val: "\353\252\250\353\271\204\353\224\225"
        string_val: "\353\236\255\352\263\240"
        string_val: "\355\213\260\353\201\214\353\252\250\354\225\204 \353\241\234\353\247\250\354\212\244"
        string_val: "\354\202\254\353\236\221\354\235\264 \353\254\264\354\204\234\354\233\214"
        string_val: "\353\202\264 \354\235\264\353\246\204\354\235\200 \354\271\270"
        string_val: "\353\240\210\353\223\234 \353\235\274\354\235\264\353\224\251 \355\233\204\353\223\234"
        string_val: "\354\273\244\355\224\214\354\246\210"
        string_val: "…"
        string_val: "…"
        string_val: "…"
        string_val: "…"
        string_val: "…"
        string_val: "\354\240\201\352\263\274\354\235\230 \353\217\231\354\271\250"
        string_val: "\354\244\204\353\246\254\354\225\204\354\235\230 \353\210\210"
        string_val: "\354\273\250\355\205\214\354\235\264\354\240\274"
        string_val: "\354\225\214\355\214\214 \354\225\244 \354\230\244\353\251\224\352\260\200"
        string_val: "\353\205\270\353\257\270\354\230\244\354\231\200 \354\244\204\353\246\254\354\227\243"
        string_val: "…"
        string_val: "…"
        string_val: "\355\210\254\355\230\274"
        string_val: "…"
        string_val: "\352\265\277\353\252\250\353\213\235 \354\227\220\353\270\214\353\246\254\354\233\220"
        string_val: "\354\275\224\354\277\240\353\246\254\354\275\224 \354\226\270\353\215\225\354\227\220\354\204\234"
        string_val: "\354\245\264\353\246\254\354\235\230 \354\234\241\354\247\200 \353\214\200\353\252\250\355\227\230"
        string_val: "\353\260\224\353\213\210\353\262\204\353\224\224"
        string_val: "127\354\213\234\352\260\204"
        string_val: "\353\202\230\353\212\224 \354\225\204\353\271\240\353\213\244"
        string_val: "\355\202\254\353\237\254 \354\227\230\353\246\254\355\212\270"
        string_val: "\354\226\264\353\270\214\353\215\225\354\205\230"
        string_val: "\354\215\250\354\273\244 \355\216\200\354\271\230"
        string_val: "\355\227\254\355\224\204"
        string_val: "…"
        string_val: "…"
        string_val: "50/50"
        string_val: "\354\240\234\354\235\270 \354\227\220\354\226\264"
        string_val: "\353\271\204\354\212\244\355\213\200\353\246\254"
        string_val: "\354\230\244\353\212\230\354\235\230 \354\227\260\354\225\240"
        string_val: "…"
        string_val: "\353\235\274\354\212\244\355\212\270 \353\202\230\354\236\207"
        string_val: "\354\240\225\353\254\264\353\254\270 : 100\353\214\200 1\354\235\230 \354\240\204\354\204\244"
        string_val: "\353\241\234\353\247\250\355\213\261 \355\201\254\353\235\274\354\232\264"
        string_val: "\353\237\254\353\270\214 \354\225\244 \355\224\204\353\240\214\354\246\210"
        string_val: "\355\236\210\355\212\270"
        string_val: "\354\233\250\354\235\264 \353\260\261"
        string_val: "\354\260\250\354\235\264\353\202\230\355\203\200\354\232\264"
        string_val: "\352\270\260\354\203\235\353\240\271"
        string_val: "\355\224\204\353\246\254\354\212\244\355\212\270"
        string_val: "\354\203\244\355\201\254 \353\202\230\354\235\264\355\212\270 3D"
        string_val: "\355\203\200\354\233\214 \355\225\230\354\235\264\354\212\244\355\212\270"
        string_val: "\354\230\245\353\263\264\353\213\250 3D"
        string_val: "\354\225\204\353\224\260\353\247\230\353\247\210 - \352\267\271\354\236\245\355\214\220"
        string_val: "\355\224\204\353\240\214\354\246\210 \354\234\204\353\223\234 \353\262\240\353\204\244\355\225\217"
        string_val: "\352\277\200\353\262\214 \355\225\230\354\271\230\354\235\230 \353\214\200\353\252\250\355\227\230"
        string_val: "\354\262\255\354\233\220"
        string_val: "\355\232\214\354\264\210\353\246\254"
        string_val: "Mr.\354\225\204\354\235\264\353\217\214"
        string_val: "\353\241\234\353\247\250\355\213\261 \355\227\244\353\270\220"
        string_val: "\353\262\240\353\213\210\354\213\261"
        string_val: "…"
        string_val: "…"
        string_val: "\353\257\270\355\212\270 \355\216\230\354\226\264\353\237\260\354\270\240 3"
        string_val: "\352\267\270\354\235\204\353\246\260 \354\202\254\353\236\221"
        string_val: "…"
        string_val: "…"
        string_val: "\353\270\224\353\246\254\354\270\240"
        string_val: "\354\226\270\355\224\274\353\213\210\354\213\234\353\223\234"
        string_val: "\355\231\251\353\213\271\355\225\234 \354\231\270\352\263\204\354\235\270: \355\217\264"
        string_val: "\355\227\244\353\223\234"
        string_val: "\352\262\260\354\240\225\354\240\201 \355\225\234\353\260\251"
        string_val: "…"
        string_val: "\355\226\211\354\230\244\353\262\204 2"
        string_val: "…"
        string_val: "\352\263\240 \353\205\200\354\204\235 \353\247\233\353\202\230\352\262\240\353\213\244"
        string_val: "\353\213\254\353\271\233 \352\270\270\354\226\264\354\230\254\353\246\254\352\270\260"
        string_val: "…"
        string_val: "\354\233\214\355\204\260 \355\217\254 \354\227\230\353\246\254\355\216\200\355\212\270"
        string_val: "\353\263\204\354\235\204 \354\253\223\353\212\224 \354\225\204\354\235\264"
        string_val: "\355\221\234\354\240\201"
        string_val: "…"
        string_val: "\353\215\224 \355\202\245"
        string_val: "\355\212\270\353\246\254 \354\230\244\353\270\214 \353\235\274\354\235\264\355\224\204"
        string_val: "\354\206\214\354\244\221\355\225\234 \353\202\240\354\235\230 \352\277\210"
        string_val: "\354\235\270 \354\226\264 \353\262\240\353\237\254 \354\233\224\353\223\234"
        string_val: "\354\212\244\355\201\254\353\246\274 4G"
        string_val: "\354\225\204\355\224\204\353\246\254\354\271\264 \353\247\210\353\262\225\354\227\254\355\226\211"
        string_val: "\355\215\274\355\216\231\355\212\270 \354\204\274\354\212\244"
        string_val: "…"
        string_val: "\353\266\201\354\264\214\353\260\251\355\226\245"
        string_val: "\355\230\210\355\210\254"
        string_val: "\354\204\270\354\235\270\355\212\270 \355\201\264\353\235\274\354\232\260\353\223\234"
        string_val: "\353\247\210\354\230\244\354\235\230 \353\235\274\354\212\244\355\212\270 \353\214\204\354\204\234"
        string_val: "\355\233\210\354\236\245\352\263\274 \354\225\205\353\217\231\353\223\244"
        string_val: "…"
        string_val: "…"
        string_val: "…"
        string_val: "\354\225\204\354\235\264 \354\227\240 \353\237\254\353\270\214"
        string_val: "\353\215\224 \353\270\214\353\240\210\354\235\264\353\270\214"
        string_val: "\353\223\234\353\235\274\354\235\264\353\270\214 \354\225\265\352\267\270\353\246\254 3D"
        string_val: "\353\254\264\355\230\221"
        string_val: "\355\231\230\354\203\201\354\235\230 \352\267\270\353\214\200"
        string_val: "\354\233\220\353\235\274\354\235\264\355\224\204"
        string_val: "\355\214\214\354\210\230\352\276\274"
        string_val: "\354\227\204\353\247\210 \352\271\214\355\210\254\353\246\254"
        string_val: "\353\217\274\354\247\200\354\235\230 \354\231\225"
        string_val: "\353\223\234\353\235\274\354\235\264\353\270\214"
        string_val: "\354\264\210(\353\257\274\353\247\235\355\225\234)\353\212\245\353\240\245\354\236\220\353\223\244"
        string_val: "\353\271\204\352\270\260\353\204\210\354\212\244"
        string_val: "\354\202\254\353\236\221\354\235\204 \354\271\264\355\224\274\355\225\230\353\213\244"
        string_val: "\354\204\270\354\203\201\354\235\230 \353\252\250\353\223\240 \352\263\204\354\240\210"
        string_val: "\354\226\221\352\263\274\354\236\220\354\240\220 \354\275\224\354\225\210\353\217\204\353\245\264"
        string_val: "\355\227\210\353\270\224 3D"
        string_val: "\355\210\274\354\212\244\355\206\244"
        string_val: "\353\271\204\354\232\260\355\213\260\355\222\200"
        string_val: "…"
        string_val: "\354\212\210\355\215\274\354\207\2743 3D"
        string_val: "\355\227\244\354\226\264\353\223\234\353\240\210\354\204\234"
        string_val: "\354\204\234\354\234\240\352\270\260 \353\246\254\355\204\264\354\246\210"
        string_val: "\355\224\214\353\240\210\354\235\264"
        string_val: "\354\275\224\355\214\214\354\271\264\353\260\224\353\202\230"
        string_val: "\355\212\270\353\243\250\353\247\233\354\207\274"
        string_val: "\354\202\254\353\235\274\354\235\230 \354\227\264\354\207\240"
        string_val: "…"
        string_val: "…"
        string_val: "\354\234\210\355\204\260\354\212\244 \353\263\270"
        string_val: "\352\263\240\354\226\221\354\235\264 \354\266\244"
        string_val: "\355\230\234\355\231\224, \353\217\231"
        string_val: "\353\254\264\354\202\260\354\235\274\352\270\260"
        string_val: "…"
        string_val: "…"
        string_val: "\353\252\250\354\260\250\353\245\264\355\212\270 \353\235\275 \354\230\244\355\216\230\353\235\274"
        string_val: "…"
        string_val: "\353\217\204\353\221\221\353\223\244"
        string_val: "\353\204\233\354\236\241: \353\225\205\354\275\251 \353\217\204\353\221\221\353\223\244"
        string_val: "\352\264\221\355\225\264, \354\231\225\354\235\264 \353\220\234 \353\202\250\354\236\220"
        string_val: "…"
        string_val: "\354\226\264\353\262\244\354\240\270\354\212\244"
        string_val: "\353\212\221\353\214\200\354\206\214\353\205\204"
        string_val: "…"
        string_val: "…"
        string_val: "…"
        string_val: "\353\202\264 \354\225\204\353\202\264\354\235\230 \353\252\250\353\223\240 \352\262\203"
        string_val: "\354\227\260\352\260\200\354\213\234"
        string_val: "\352\261\264\354\266\225\355\225\231\352\260\234\353\241\240"
        string_val: "\353\266\200\353\237\254\354\247\204 \355\231\224\354\202\264"
        string_val: "\353\247\250 \354\235\270 \353\270\224\353\236\231 3"
        string_val: "26\353\205\204"
        string_val: "\353\202\264\352\260\200 \354\202\264\354\235\270\353\262\224\354\235\264\353\213\244"
        string_val: "\353\270\214\353\240\210\354\235\264\355\202\271 \353\215\230 part2"
        string_val: "\355\233\204\352\266\201 : \354\240\234\354\231\225\354\235\230 \354\262\251"
        string_val: "\355\230\270\353\271\227: \353\234\273\353\260\226\354\235\230 \354\227\254\354\240\225"
        string_val: "\355\231\224\354\260\250"
        string_val: "\354\235\264\354\233\203\354\202\254\353\236\214"
        string_val: "007 \354\212\244\354\271\264\354\235\264\355\217\264"
        string_val: "\353\260\260\355\213\200\354\211\275"
        string_val: "…"
        string_val: "\353\202\230\354\235\230 PS \355\214\214\355\212\270\353\204\210 "
        string_val: "\353\260\230\354\260\275\352\274\254"
        string_val: "\353\237\254\353\270\214\355\224\275\354\205\230"
        string_val: "…"
        string_val: "\352\263\265\353\252\250\354\236\220\353\223\244"
        string_val: "\355\225\230\354\232\270\353\247\201"
        string_val: "\354\232\251\354\235\230\354\236\220X"
        string_val: "\354\260\250\355\230\225\354\202\254"
        string_val: "\354\235\200\352\265\220"
        string_val: "\352\260\204\354\262\251"
        string_val: "\352\260\204\352\270\260\353\202\250"
        string_val: "\353\251\224\353\246\254\353\213\244\354\231\200 \353\247\210\353\262\225\354\235\230 \354\210\262"
        string_val: "\355\206\240\355\203\210 \353\246\254\354\275\234"
        string_val: "R2B: \353\246\254\355\204\264\355\210\254\353\262\240\354\235\264\354\212\244"
        string_val: "\353\217\210\354\235\230 \353\247\233"
        string_val: "\355\232\214\354\202\254\354\233\220"
        string_val: "\353\263\270 \353\240\210\352\261\260\354\213\234"
        string_val: "…"
        string_val: "\354\213\234\354\262\264\352\260\200 \353\217\214\354\225\204\354\231\224\353\213\244"
        string_val: "\354\233\220\353\215\224\355\222\200 \353\235\274\353\224\224\354\230\244"
        string_val: "\353\217\210 \355\201\254\353\235\274\354\235\264 \353\247\210\353\257\270"
        string_val: "\355\224\204\353\241\234\353\251\224\355\205\214\354\232\260\354\212\244"
        string_val: "\354\240\220\354\237\201\354\235\264\353\223\244"
        string_val: "\353\224\224\354\212\244 \353\257\274\354\246\210 \354\233\214"
        string_val: "…"
        string_val: "\353\202\230\353\212\224 \354\231\225\354\235\264\353\241\234\354\206\214\354\235\264\353\213\244"
        string_val: "…"
        string_val: "\354\243\274\353\250\271\354\231\225 \353\236\204\355\224\204"
        string_val: "\353\257\270\354\223\260GO"
        string_val: "…"
        string_val: "\355\224\274\354\227\220\355\203\200"
        string_val: "\353\247\250 \354\230\250 \353\240\233\354\247\200"
        string_val: "\355\214\214\355\214\214\353\241\234\355\213\260"
        string_val: "\353\213\244\355\201\254 \354\204\200\353\217\204\354\232\260"
        string_val: "\353\243\250\355\215\274"
        string_val: "…"
        string_val: "\354\225\204\353\266\200\354\235\230 \354\231\225"
        string_val: "…"
        string_val: "…"
        string_val: "\353\221\220 \352\260\234\354\235\230 \353\213\254"
        string_val: "\355\201\254\353\241\234\353\213\210\355\201\264"
        string_val: "\353\215\260\353\270\224"
        string_val: "\353\257\270\353\223\234\353\202\230\354\236\207 \354\235\270 \355\214\214\353\246\254"
        string_val: "…"
        string_val: "\354\235\214\354\271\230 \355\201\264\353\246\254\353\213\211 "
        string_val: "\353\212\221\353\214\200\354\225\204\354\235\264"
        string_val: "\353\202\250\354\230\201\353\217\2311985"
        string_val: "…"
        string_val: "\353\254\264\354\204\234\354\232\264 \354\235\264\354\225\274\352\270\260 2"
        string_val: "…"
        string_val: "…"
        string_val: "…"
        string_val: "\353\241\234\353\240\211\354\212\244"
        string_val: "\354\234\204\355\227\230\355\225\234 \352\264\200\352\263\204"
        string_val: "\353\215\224 \352\267\270\353\240\210\354\235\264"
        string_val: "…"
        string_val: "…"
        string_val: "…"
        string_val: "\352\260\200\353\271\204"
        string_val: "19\352\263\260 \355\205\214\353\223\234 2"
        string_val: "19\352\263\260 \355\205\214\353\223\234"
        string_val: "…"
        string_val: "\354\204\234\354\225\275"
        string_val: "…"
        string_val: "\354\272\220\353\271\210 \354\235\270 \353\215\224 \354\232\260\354\246\210"
        string_val: "\353\202\230\353\212\224 \352\263\265\353\254\264\354\233\220\354\235\264\353\213\244"
        string_val: "\354\236\220\354\271\274\354\235\264 \354\230\250\353\213\244"
        string_val: "…"
        string_val: "…"
        string_val: "\354\233\220 \353\215\260\354\235\264"
        string_val: "…"
        string_val: "\354\204\270\354\235\264\355\224\204 \355\225\230\354\232\260\354\212\244"
        string_val: "\353\213\244\355\201\254\354\225\204\354\233\214"
        string_val: "\353\215\224 \353\240\210\354\235\264\353\270\220"
        string_val: "\354\225\204\353\245\264\352\263\240"
        string_val: "…"
        string_val: "…"
        string_val: "\353\246\254\353\257\270\355\212\270\353\246\254\354\212\244"
        string_val: "\354\225\204\355\213\260\354\212\244\355\212\270 \353\264\211\353\247\214\353\214\200"
        string_val: "…"
        string_val: "5\353\260\261\353\247\214\353\266\210\354\235\230 \354\202\254\353\202\230\354\235\264"
        string_val: "\354\235\270\353\245\230\353\251\270\353\247\235 \353\263\264\352\263\240\354\204\234"
        string_val: "577 \355\224\204\353\241\234\354\240\235\355\212\270"
        string_val: "\354\264\210\355\225\234\354\247\200 - \354\262\234\355\225\230\353\214\200\354\240\204"
        string_val: "\354\262\240\352\260\200\353\260\251 \354\232\260\354\210\230\346\260\217"
        string_val: "\353\235\275 \354\230\244\353\270\214 \354\227\220\354\235\264\354\247\200"
        string_val: "…"
        string_val: "…"
        string_val: "…"
        string_val: "\353\240\210\354\240\204\353\223\234 \354\230\244\353\270\214 \353\236\230\353\271\227"
        string_val: "…"
        string_val: "\354\241\260\354\241\260-\355\231\251\354\240\234\354\235\230 \353\260\230\353\236\200"
        string_val: "\353\221\220 \352\260\234\354\235\230 \353\254\270"
        string_val: "\353\202\230\354\232\260\354\235\264\354\246\210\352\265\277 "
        string_val: "…"
        string_val: "…"
        string_val: "\354\232\260\353\246\254\353\217\204 \354\202\254\353\236\221\354\235\274\352\271\214"
        string_val: "\355\234\264\352\263\240"
        string_val: "…"
        string_val: "\355\227\244\354\235\264\354\231\200\354\235\264\354\226\264"
        string_val: "\354\202\264\354\235\270\354\206\214\354\204\244"
        string_val: "\353\224\224\354\204\274\353\215\230\355\212\270"
        string_val: "\354\275\230\355\212\270\353\235\274\353\260\264\353\223\234"
        string_val: "\354\235\270\354\213\234\353\224\224\354\226\264\354\212\244 3"
        string_val: "…"
        string_val: "\353\271\205 \353\257\270\353\235\274\355\201\264"
        string_val: "…"
        string_val: "\353\215\224 \354\224\275"
        string_val: "\353\240\210\353\223\234\353\235\274\354\235\264\355\212\270"
        string_val: "\354\240\200\354\247\200\353\223\234\353\240\210\353\223\234 3D"
        string_val: "\354\212\244\355\203\240\353\246\254\354\235\230 \353\217\204\354\213\234\353\235\275 "
        string_val: "\353\260\200\353\246\274\354\235\230 \354\231\225\354\236\220 \353\240\210\354\230\2442"
        string_val: "\355\202\271\353\251\224\354\235\264\354\273\244"
        string_val: "\354\274\200\353\271\210\354\227\220 \353\214\200\355\225\230\354\227\254"
        string_val: "…"
        string_val: "\354\212\244\355\216\230\354\235\264\354\212\244 \353\217\205 2"
        string_val: "\354\212\244\355\216\230\354\235\264\354\212\244 \353\217\205"
        string_val: "\355\225\230\355\212\270 \353\270\214\353\240\210\354\235\264\354\273\244"
        string_val: "…"
        string_val: "\353\247\220\355\225\230\353\212\224 \352\261\264\354\266\225\352\260\200"
        string_val: "…"
        string_val: "\353\221\220\353\240\210\354\206\214\353\246\254"
        string_val: "…"
        string_val: "\353\263\265\354\210\255\354\225\204\353\202\230\353\254\264"
        string_val: "\354\275\224\353\202\234: \354\225\224\355\235\221\354\235\230 \354\213\234\353\214\200"
        string_val: "\354\213\234\354\236\221\354\235\200 \355\202\244\354\212\244!"
        string_val: "\353\213\244\353\245\270\353\202\230\353\235\274\354\227\220\354\204\234"
        string_val: "\353\262\250 \354\225\204\353\257\270"
        string_val: "…"
        string_val: "\353\215\260\354\235\270\354\240\200\353\237\254\354\212\244 \353\251\224\354\206\214\353\223\234"
        string_val: "\353\247\244\354\247\201 \353\247\210\354\235\264\355\201\254"
        string_val: "…"
        string_val: "\353\250\270\354\213\240\352\261\264 \355\224\204\353\246\254\354\262\230"
        string_val: "\354\233\220 \355\217\254 \353\215\224 \353\250\270\353\213\210"
        string_val: "…"
        string_val: "\354\225\204\353\254\264\353\245\264"
        string_val: "\354\236\220\354\240\204\352\261\260 \355\203\204 \354\206\214\353\205\204"
        string_val: "\355\217\255\355\222\215\354\235\230 \354\226\270\353\215\225"
        string_val: "\354\204\234\354\271\255 \355\217\254 \354\212\210\352\260\200\353\247\250"
        string_val: "\354\275\224\353\223\234\353\204\244\354\236\204 \354\240\234\353\241\234\353\213\210\353\252\250"
        string_val: "\354\247\200\354\203\201\354\235\230 \353\263\204\354\262\230\353\237\274"
        string_val: "\352\260\234\353\223\244\354\235\230 \354\240\204\354\237\201"
        string_val: "…"
        string_val: "\355\224\274\353\202\230"
        string_val: "\354\233\250\353\224\251\354\212\244\354\272\224\353\223\244"
        string_val: "\354\202\254\353\236\221\354\235\230 \354\271\250\353\254\265 "
        string_val: "\353\214\200\355\225\231\354\202\264\354\235\230 \354\213\240"
        string_val: "\355\214\214\352\264\264\354\236\220\353\223\244"
        string_val: "\353\213\254\355\214\275\354\235\264\354\235\230 \353\263\204"
        string_val: "…"
        string_val: "\355\225\234\352\262\275\354\247\201"
        string_val: "\353\251\234\353\236\221\354\275\234\353\246\254\354\225\204"
        string_val: "\354\213\240\352\263\274 \354\235\270\352\260\204"
        string_val: "\353\237\260\353\215\230 \353\270\224\353\237\254\353\260\224\353\223\234"
        string_val: "\355\225\230\353\212\230\354\235\264 \353\263\264\353\202\264\354\244\200 \353\224\270"
        string_val: "…"
        string_val: "…"
        string_val: "\353\270\224\353\243\250 \353\260\234\353\240\214\355\203\200\354\235\270"
        string_val: "\354\271\230\354\275\224\354\231\200 \353\246\254\355\203\200"
        string_val: "MB\354\235\230 \354\266\224\354\226\265"
        string_val: "…"
        string_val: "\355\214\214\353\213\245\355\214\214\353\213\245"
        string_val: "\354\233\220\354\212\244 \354\226\264\352\262\214\354\235\270"
        string_val: "…"
        string_val: "\353\237\274 \353\213\244\354\235\264\354\226\264\353\246\254"
        string_val: "\354\235\265\354\212\244\355\212\270\353\246\274 No.13"
        string_val: "\354\213\234\354\212\244\355\204\260 "
        string_val: "\353\262\224\354\243\204\354\206\214\353\205\204"
        string_val: "\355\225\264\355\224\274 \355\225\264\355\224\274 \353\270\214\353\240\210\353\223\234"
        string_val: "\354\225\274\352\263\261 \354\213\240\353\266\200\354\235\230 \355\216\270\354\247\200"
        string_val: "\353\202\264\352\260\200 \352\263\240\353\260\261\354\235\204 \355\225\230\353\251\264"
        string_val: "…"
        string_val: "\354\227\224\353\223\234 \354\230\244\353\270\214 \354\231\223\354\271\230"
        string_val: "\353\260\244\354\235\230 \354\235\264\354\225\274\352\270\260"
        string_val: "\354\225\204\353\205\270\353\247\220\353\246\254\354\202\254"
        string_val: "…"
        string_val: "\354\213\254\355\224\214 \353\235\274\354\235\264\355\224\204"
        string_val: "\353\257\270\353\236\230\353\212\224 \352\263\240\354\226\221\354\235\264\354\262\230\353\237\274"
        string_val: "\354\204\270 \353\262\210\354\247\270 \354\202\254\353\236\221"
        string_val: "7\353\262\210\353\260\251\354\235\230 \354\204\240\353\254\274"
        string_val: "\354\204\244\352\265\255\354\227\264\354\260\250"
        string_val: "\352\264\200\354\203\201"
        string_val: "\353\262\240\353\245\274\353\246\260"
        string_val: "\354\235\200\353\260\200\355\225\230\352\262\214 \354\234\204\353\214\200\355\225\230\352\262\214"
        string_val: "\353\263\200\355\230\270\354\235\270"
        string_val: "\353\215\224 \355\205\214\353\237\254 \353\235\274\354\235\264\353\270\214"
        string_val: "\352\260\220\354\213\234\354\236\220\353\223\244"
        string_val: "\354\233\224\353\223\234 \354\233\214 Z"
        string_val: "\354\213\240\354\204\270\352\263\204"
        string_val: "\353\260\225\354\210\230\352\261\264\353\213\254"
        string_val: "\354\212\244\355\214\214\354\235\264 \353\270\214\353\246\277\354\247\200"
        string_val: "…"
        string_val: "\352\260\220\352\270\260"
        string_val: "\355\206\240\353\245\264: \353\213\244\355\201\254 \354\233\224\353\223\234"
        string_val: "\353\240\210\353\223\234: \353\215\224 \353\240\210\354\240\204\353\223\234"
        string_val: "\354\271\234\352\265\254 2"
        string_val: "\354\226\264\353\260\224\354\233\203 \355\203\200\354\236\204"
        string_val: "…"
        string_val: "\354\234\204\353\214\200\355\225\234 \354\206\214\354\233\220"
        string_val: "\354\206\214\354\233\220"
        string_val: "…"
        string_val: "\355\215\274\354\213\234\355\224\275 \353\246\274"
        string_val: "\354\273\250\354\240\200\353\247\201 2"
        string_val: "\354\273\250\354\240\200\353\247\201"
        string_val: "\353\247\250 \354\230\244\353\270\214 \354\212\244\355\213\270"
        string_val: "\354\232\251\354\235\230\354\236\220"
        string_val: "…"
        string_val: "\354\227\260\354\225\240\354\235\230 \354\230\250\353\217\204"
        string_val: "\354\247\200.\354\225\204\354\235\264.\354\241\260 2"
        string_val: "…"
        string_val: "\354\247\221\354\234\274\353\241\234 \352\260\200\353\212\224 \352\270\270"
        string_val: "\354\240\204\354\204\244\354\235\230 \354\243\274\353\250\271"
        string_val: "\354\212\244\355\203\200\355\212\270\353\240\211 \353\213\244\355\201\254\353\213\210\354\212\244"
        string_val: "\353\235\274\354\235\264\355\224\204 \354\230\244\353\270\214 \355\214\214\354\235\264"
        string_val: "\354\230\244\353\270\224\353\246\254\353\271\204\354\226\270"
        string_val: "…"
        string_val: "\353\237\260\353\213\235\353\247\250"
        string_val: "\353\257\270\354\212\244\355\204\260 \352\263\240"
        string_val: "\352\271\241\354\262\240\354\235\264"
        string_val: "\354\227\230\353\246\254\354\213\234\354\233\200"
        string_val: "\353\215\224 \354\233\271\355\210\260: \354\230\210\352\263\240\354\202\264\354\235\270"
        string_val: "\354\233\234 \353\260\224\353\224\224\354\212\244"
        string_val: "\352\263\240\353\240\271\355\231\224 \352\260\200\354\241\261"
        string_val: "…"
        string_val: "\353\215\224 \354\232\270\353\262\204\353\246\260"
        string_val: "\354\227\220\355\224\275 : \354\210\262\354\206\215\354\235\230 \354\240\204\354\204\244 "
        string_val: "…"
        string_val: "\355\201\254\353\243\250\354\246\210 \355\214\250\353\260\200\353\246\254"
        string_val: "…"
        string_val: "\354\227\264\355\225\234\354\213\234"
        string_val: "\353\252\254\354\212\244\355\204\260 \353\214\200\355\225\231\352\265\220"
        string_val: "\353\202\250\354\252\275\354\234\274\353\241\234 \355\212\200\354\226\264"
        string_val: "\354\236\255 \353\246\254\354\262\230"
        string_val: "\353\215\224 \355\214\214\354\235\264\353\270\214"
        string_val: "\353\215\224 \354\236\204\355\214\214\354\204\234\353\270\224"
        string_val: "…"
        string_val: "\355\231\224\354\235\264\355\212\270 \355\225\230\354\232\260\354\212\244 \353\213\244\354\232\264"
        string_val: "…"
        string_val: "\353\202\250\354\236\220\354\202\254\354\232\251\354\204\244\353\252\205\354\204\234"
        string_val: "…"
        string_val: "\354\272\220\354\271\230\353\257\270"
        string_val: "\354\272\220\354\271\230 \353\257\270 \354\235\264\355\224\204 \354\234\240 \354\272\224"
        string_val: "\354\215\254\353\215\224\354\231\200 \353\247\210\353\262\225\354\240\200\355\203\235"
        string_val: "\353\205\270\353\270\214\353\240\210\354\213\261"
        string_val: "\355\201\264\353\235\274\354\232\260\353\223\234 \354\225\204\355\213\200\353\235\274\354\212\244"
        string_val: "\354\260\275\354\210\230"
        string_val: "…"
        string_val: "…"
        string_val: "\353\257\270\353\202\230\353\254\270\353\260\251\352\265\254"
        string_val: "…"
        string_val: "\354\235\264\354\212\244\354\274\200\354\235\264\355\224\204 \355\224\214\353\236\234"
        string_val: "…"
        string_val: "\353\260\244\354\235\230 \354\227\254\354\231\225"
        string_val: "\354\272\241\355\213\264 \355\225\204\353\246\275\354\212\244"
        string_val: "\353\266\204\353\205\270\354\235\230 \354\234\244\353\246\254\355\225\231"
        string_val: "\354\212\244\355\213\260\353\270\214 \354\236\241\354\212\244"
        string_val: "\354\236\241\354\212\244"
        string_val: "\354\204\270\354\235\264\353\271\231 \354\202\260\355\203\200"
        string_val: "…"
        string_val: "\354\206\241 \355\217\254 \354\234\240"
        string_val: "\353\271\204\355\217\254 \353\257\270\353\223\234\353\202\230\354\236\207"
        string_val: "\354\235\221\354\247\225\354\236\220"
        string_val: "\353\247\210\354\235\264 \353\246\254\355\213\200 \355\236\210\354\226\264\353\241\234"
        string_val: "\355\225\264\354\226\221\352\262\275\354\260\260 \353\247\210\353\245\264\354\275\224"
        string_val: "\353\260\261\354\225\205\352\264\200 \354\265\234\355\233\204\354\235\230 \353\202\240"
        string_val: "\353\241\234\353\247\210 \354\234\204\353\223\234 \353\237\254\353\270\214"
        string_val: "…"
        string_val: "\355\206\261\354\212\244\355\203\200"
        string_val: "\354\227\224\353\215\224\354\212\244 \352\262\214\354\236\204"
        string_val: "\353\215\224 \354\236\220\354\235\264\354\226\270\355\212\270"
        string_val: "\355\236\210\353\223\240 \354\271\264\353\223\234"
        string_val: "…"
        string_val: "\353\270\224\353\243\250 \354\236\254\354\212\244\353\257\274"
        string_val: "…"
        string_val: "\353\215\224 \355\215\274\354\247\200"
        string_val: "\354\271\264\354\232\264\354\212\254\353\237\254"
        string_val: "\353\246\254\353\224\225"
        string_val: "\353\237\254\354\213\234 : \353\215\224 \353\235\274\354\235\264\353\262\214"
        string_val: "…"
        string_val: "…"
        string_val: "…"
        string_val: "\353\260\260\354\232\260\353\212\224 \353\260\260\354\232\260\353\213\244"
        string_val: "\354\240\234\353\241\234 \353\213\244\355\201\254 \354\204\234\355\213\260"
        string_val: "\353\247\210\354\247\200\353\247\211 4\354\244\221\354\243\274"
        string_val: "…"
        string_val: "R.I.P.D. : \354\225\214.\354\225\204\354\235\264.\355\224\274.\353\224\224."
        string_val: "…"
        string_val: "\354\233\220\355\224\274\354\212\244 \352\267\271\354\236\245\355\214\220 Z"
        string_val: "\353\215\224 \354\275\234"
        string_val: "\353\267\260\355\213\260\355\222\200 \355\201\254\353\246\254\354\262\230\354\212\244"
        string_val: "\355\206\240\355\206\240\354\235\230 \354\233\200\354\247\201\354\235\264\353\212\224 \354\210\262"
        string_val: "…"
        string_val: "\355\231\224\354\235\264\355\212\270 \352\263\240\353\246\264\353\235\274"
        string_val: "…"
        string_val: "\354\232\260\353\246\254 \354\204\240\355\235\254"
        string_val: "\353\213\245\355\204\260"
        string_val: "…"
        string_val: "\353\235\274\354\212\244\355\212\270 \354\212\244\355\203\240\353\223\234"
        string_val: "…"
        string_val: "\354\227\220\353\260\230\352\262\214\353\246\254\354\230\250: Q"
        string_val: "…"
        string_val: "\355\230\270\355\224\204 \354\212\244\355\224\204\353\247\201\354\246\210"
        string_val: "…"
        string_val: "…"
        string_val: "…"
        string_val: "\352\270\270\354\234\204\354\227\220\354\204\234"
        string_val: "\354\212\244\354\271\264\354\235\264\355\217\254\354\212\244 3D"
        string_val: "\354\226\270\354\226\264\354\235\230 \354\240\225\354\233\220"
        string_val: "\353\270\224\353\236\231 \352\260\200\354\212\244\355\216\240"
        string_val: "…"
        string_val: "\353\234\250\352\261\260\354\232\264 \354\225\210\353\205\225"
        string_val: "…"
        string_val: "\354\212\210\355\215\274\354\234\231\354\212\244 3D"
        string_val: "…"
        string_val: "…"
        string_val: "\354\245\254\353\235\274\352\270\260 \354\233\224\353\223\234"
        string_val: "\355\230\270\354\212\244\355\212\270"
        string_val: "\354\212\244\353\213\210\354\271\230"
        string_val: "\354\204\270\354\235\264\355\224\204 \355\227\244\354\235\264\353\270\220"
        string_val: "…"
        string_val: "\354\202\254\354\235\264\353\223\234 \354\235\264\355\216\231\355\212\270"
        string_val: "\354\240\200\354\212\244\355\213\264"
        string_val: "…"
        string_val: "\353\253\274\353\271\204\354\232\260\354\212\244"
        string_val: "…"
        string_val: "\353\223\234\353\236\230\352\263\244 \355\227\214\355\204\260"
        string_val: "\353\247\210\354\212\244\355\204\260 "
        string_val: "…"
        string_val: "\353\271\205 \354\233\250\353\224\251"
        string_val: "\353\237\254\354\212\244\355\212\270 \354\225\244 \353\263\270"
        string_val: "\352\274\255\353\221\220\352\260\201\354\213\234"
        string_val: "\354\226\264\353\226\244 \354\213\234\354\204\240"
        string_val: "…"
        string_val: "\353\250\270\353\223\234 "
        string_val: "…"
        string_val: "\354\212\244\355\214\214\354\235\264\355\201\254"
        string_val: "\353\271\205 \355\224\275\354\262\230"
        string_val: "…"
        string_val: "…"
        string_val: "\354\232\260\354\225\204\355\225\234 \352\261\260\354\247\223\353\247\220"
        string_val: "\354\225\214\353\240\211\354\212\244 \355\201\254\353\241\234\354\212\244"
        string_val: "\355\224\204\353\235\274\353\257\270\354\212\244\353\223\234 \353\236\234\353\223\234 "
        string_val: "…"
        string_val: "\352\271\214\353\260\200 \353\246\254\354\231\200\354\235\270\353\223\234"
        string_val: "\354\202\254\354\235\264\353\271\204"
        string_val: "…"
        string_val: "\354\262\234\354\225\210\355\225\250 \355\224\204\353\241\234\354\240\235\355\212\270"
        string_val: "\354\225\204\352\270\260\352\270\260\353\246\260 \354\236\220\353\235\274\355\214\214"
        string_val: "\355\224\214\353\235\274\354\235\264\355\212\270"
        string_val: "\353\213\244\354\235\264\354\225\240\353\202\230"
        string_val: "\354\231\204\354\240\204 \354\206\214\354\244\221\355\225\234 \354\202\254\353\236\221"
        string_val: "…"
        string_val: "\353\237\254\353\270\214\353\240\210\354\235\264\354\212\244"
        string_val: "\354\204\270\354\203\201\354\235\230 \353\201\235\352\271\214\354\247\200 21\354\235\274"
        string_val: "\353\266\200\353\217\204\353\246\254\354\235\230 \352\277\210 "
        string_val: "\355\231\200\353\246\254 \353\252\250\355\204\260\354\212\244"
        string_val: "…"
        string_val: "\354\235\264\353\263\204\352\263\204\354\225\275"
        string_val: "\354\235\270 \353\215\224 \355\225\230\354\232\260\354\212\244"
        string_val: "\355\203\200\354\235\264\354\271\2300 3D"
        string_val: "…"
        string_val: "\354\233\224\355\224\214\353\235\274\354\233\214"
        string_val: "\354\236\211\355\210\254\352\270\260"
        string_val: "\355\204\260\354\271\230 \354\230\244\353\270\214 \353\235\274\354\235\264\355\212\270"
        string_val: "\353\252\205\354\231\225\354\204\261"
      }
    }
  }
}
node {
  name: "SparseTensor/dense_shape"
  op: "Const"
  attr {
    key: "_output_shapes"
    value {
      list {
        shape {
          dim {
            size: 2
          }
        }
      }
    }
  }
  attr {
    key: "dtype"
    value {
      type: DT_INT64
    }
  }
  attr {
    key: "value"
    value {
      tensor {
        dtype: DT_INT64
        tensor_shape {
          dim {
            size: 2
          }
        }
        tensor_content: "\320\007\000\000\000\000\000\000\001\000\000\000\000\000\000\000"
      }
    }
  }
}
node {
  name: "SparseTensor_1/indices"
  op: "Const"
  attr {
    key: "_output_shapes"
    value {
      list {
        shape {
          dim {
            size: 2000
          }
          dim {
            size: 2
          }
        }
      }
    }
  }
  attr {
    key: "dtype"
    value {
      type: DT_INT64
    }
  }
  attr {
    key: "value"
    value {
      tensor {
        dtype: DT_INT64
        tensor_shape {
          dim {
            size: 2000
          }
          dim {
            size: 2
          }
        }
        tensor_content: "…"
      }
    }
  }
}
node {
  name: "SparseTensor_1/values"
  op: "Const"
  attr {
    key: "_output_shapes"
    value {
      list {
        shape {
          dim {
            size: 2000
          }
        }
      }
    }
  }
  attr {
    key: "dtype"
    value {
      type: DT_STRING
    }
  }
  attr {
    key: "value"
    value {
      tensor {
        dtype: DT_STRING
        tensor_shape {
          dim {
            size: 2000
          }
        }
        string_val: "\352\260\225\354\240\234\352\267\234"
        string_val: "\353\263\274\355\224\204\352\260\225 \355\216\230\355\204\260\354\240\240"
        string_val: "\354\235\264\354\236\254\355\225\234"
        string_val: "\352\271\200\354\203\201\354\247\204"
        string_val: "\353\270\214\353\236\230\353\223\234 \353\262\204\353\223\234"
        string_val: "\353\215\224\352\267\270 \353\235\274\354\235\264\353\247\214"
        string_val: "\354\225\210\352\266\214\355\203\234"
        string_val: "\354\225\214\355\217\260\354\206\214 \354\277\240\354\225\204\353\241\240"
        string_val: "\354\274\210\353\246\254 \354\225\240\354\212\244\353\262\204\353\246\254"
        string_val: "\352\260\225\354\232\260\354\204\235"
        string_val: "\353\247\210\355\201\254 \354\233\271"
        string_val: "\354\203\230 \353\240\210\354\235\264\353\257\270"
        string_val: "\354\226\221\354\234\244\355\230\270"
        string_val: "\354\241\260\354\227\230 \354\212\210\353\247\210\355\227\210"
        string_val: "\352\263\275\354\236\254\354\232\251"
        string_val: "\352\271\200\355\203\234\352\267\240"
        string_val: "\352\271\200\355\203\234\352\263\244"
        string_val: "\354\213\240\354\240\225\354\233\220"
        string_val: "\354\225\214\353\240\211\354\212\244 \355\224\204\353\241\234\354\225\274\354\212\244"
        string_val: "\352\266\214\354\242\205\352\264\200"
        string_val: "\352\263\265\354\210\230\354\260\275"
        string_val: "\354\235\264\354\226\270\355\235\254"
        string_val: "\354\206\220\354\236\254\352\263\244"
        string_val: "\353\271\204\353\262\210 \355\202\244\353\223\234\353\241\240"
        string_val: "\352\271\200\355\230\270\354\244\200"
        string_val: "\353\257\270\354\225\274\354\236\220\355\202\244 \355\225\230\354\225\274\354\230\244"
        string_val: "\354\227\220\353\246\255 \353\270\214\353\240\210\354\212\244"
        string_val: "\354\206\241\355\225\264\354\204\261"
        string_val: "\354\265\234\353\217\231\355\233\210"
        string_val: "\354\212\244\355\213\260\353\270\220 \354\206\214\353\250\270\354\246\210"
        string_val: "\352\270\270 \354\240\225\352\261\260 "
        string_val: "\354\236\245\352\267\234\354\204\261"
        string_val: "\353\251\234 \352\271\201\354\212\250 "
        string_val: "\353\245\230\354\212\271\354\231\204"
        string_val: "\354\225\210\355\206\244 \355\233\204\354\277\240\354\225\204"
        string_val: "\353\260\225\354\240\234\355\230\204"
        string_val: "\354\236\204\354\260\254\354\203\201"
        string_val: "\354\236\245\354\247\204"
        string_val: "\354\234\241\354\203\201\355\232\250"
        string_val: "\355\227\210\354\235\270\353\254\264"
        string_val: "\353\215\260\354\235\264\353\271\227 S. \352\263\240\354\235\264\354\226\264"
        string_val: "\352\271\200\354\242\205\355\230\204"
        string_val: "\353\270\214\353\236\230\353\223\234 \353\262\204\353\223\234"
        string_val: "\353\243\250\354\235\264\354\212\244 \353\246\254\355\205\214\353\246\254\354\226\264"
        string_val: "\354\225\210\353\263\221\352\270\260"
        string_val: "\354\225\210\353\263\221\352\270\260"
        string_val: "\354\234\240\355\225\230"
        string_val: "\353\247\210\354\235\264\355\201\264 \353\247\214"
        string_val: "\353\260\225\355\227\214\354\210\230"
        string_val: "\354\235\264\354\203\201\355\233\210 "
        string_val: "\354\236\245\355\230\204\354\210\230"
        string_val: "\353\245\230\354\236\245\355\225\230"
        string_val: "\355\224\204\353\236\221\354\275\224 \354\275\224\353\235\274\354\213\234"
        string_val: "\353\260\225\355\235\245\354\213\235"
        string_val: "\352\271\200\354\247\200\355\233\210"
        string_val: "\353\213\211 \354\271\264\354\202\254\353\262\240\354\270\240"
        string_val: "\355\224\274\355\204\260 \354\236\255\354\212\250"
        string_val: "M. \353\202\230\354\235\264\355\212\270 \354\203\244\353\247\220\353\236\200"
        string_val: "\354\235\264\355\231\230\352\262\275"
        string_val: "\355\217\264 \352\267\270\353\246\260\352\267\270\353\236\230\354\212\244"
        string_val: "\354\225\214\353\240\211\354\202\260\353\215\224 \354\234\227"
        string_val: "\352\271\200\354\235\270\354\213\235"
        string_val: "\354\234\240\355\202\244\354\202\254\353\213\244 \354\235\264\354\202\254\354\230\244"
        string_val: "\355\206\240\353\213\210 \354\212\244\354\275\247"
        string_val: "\354\227\220\353\223\234\354\233\214\353\223\234 \354\246\210\354\234\205"
        string_val: "\353\260\260\355\230\225\354\244\200"
        string_val: "\354\213\240\353\217\231\354\227\275"
        string_val: "\353\215\260\354\235\264\353\271\227 \355\206\240\355\236\210"
        string_val: "\353\247\210\355\201\254 A.Z. \353\224\224\355\216\230"
        string_val: "\353\247\210\355\201\254 A.Z. \353\224\224\355\216\230"
        string_val: "\355\214\200 \355\236\220"
        string_val: "\355\224\274\355\204\260 \355\234\264\354\236\207"
        string_val: "\354\230\254\353\246\254\353\262\204 \354\212\244\355\206\244"
        string_val: "\353\260\225\355\230\204\354\247\204"
        string_val: "\353\247\210\354\235\264\355\201\254 \355\224\214\353\236\230\353\204\210\352\261\264"
        string_val: "\353\247\210\355\201\254 \354\233\271"
        string_val: "\354\225\204\354\206\214 \353\247\210\353\202\230\353\266\200"
        string_val: "\354\270\240\354\271\264\353\252\250\355\206\240 \353\240\214\355\216\230\354\235\264"
        string_val: "\352\271\200\354\247\200\354\230\201"
        string_val: "\354\236\204\352\266\214\355\203\235"
        string_val: "\354\240\225\354\232\251\352\270\260"
        string_val: "\353\241\234\353\262\204\355\212\270 \354\240\200\353\251\224\355\202\244\354\212\244"
        string_val: "\354\241\260\354\205\211 \353\243\250\353\262\244"
        string_val: "\354\240\225\354\227\260\354\233\220"
        string_val: "\355\224\274\355\206\240\355\224\204"
        string_val: "\355\224\274\355\204\260 \354\213\234\352\261\270"
        string_val: "\352\260\225\354\204\235\353\262\224"
        string_val: "\354\275\234\353\246\260 \354\212\244\355\212\270\353\235\274\354\232\260\354\212\244"
        string_val: "\355\217\264 W.S. \354\225\244\353\215\224\354\212\250"
        string_val: "\353\260\225\354\260\254\354\232\261"
…
  op: "Const"
  attr {
    key: "_output_shapes"
    value {
      list {
        shape {
          dim {
            size: 1
          }
        }
      }
    }
  }
  attr {
    key: "dtype"
    value {
      type: DT_STRING
    }
  }
  attr {
    key: "value"
    value {
      tensor {
        dtype: DT_STRING
        tensor_shape {
          dim {
            size: 1
          }
        }
        string_val: "dnn/input_from_feature_columns/cat1_embedding/weights/mbedding/weights/part_0/Adagrad"
      }
    }
  }
}
node {
  name: "save/RestoreV2_9/shape_and_slices"
  op: "Const"
  attr {
    key: "_output_shapes"
    value {
      list {
        shape {
          dim {
            size: 1
          }
        }
      }
    }
  }
  attr {
    key: "dtype"
    value {
      type: DT_STRING
    }
  }
  attr {
    key: "value"
    value {
      tensor {
        dtype: DT_STRING
        tensor_shape {
          dim {
            size: 1
          }
        }
        string_val: "1000 16 0,1000:0,16"
      }
    }
  }
}
node {
  name: "save/RestoreV2_9"
  op: "RestoreV2"
  input: "save/Const"
  input: "save/RestoreV2_9/tensor_names"
  input: "save/RestoreV2_9/shape_and_slices"
  attr {
    key: "_output_shapes"
    value {
      list {
        shape {
          unknown_rank: true
        }
      }
    }
  }
  attr {
    key: "dtypes"
    value {
      list {
        type: DT_FLOAT
      }
    }
  }
}
node {
  name: "save/Assign_9"
  op: "Assign"
  input: "dnn/regression_head/dnn/dnn/input_from_feature_columns/cat1_embedding/weights/part_0/Adagrad"
  input: "save/RestoreV2_9"
  attr {
    key: "T"
    value {
      type: DT_FLOAT
    }
  }
  attr {
    key: "_class"
    value {
      list {
        s: "loc:@dnn/input_from_feature_columns/cat1_embedding/weights/part_0"
      }
    }
  }
  attr {
    key: "_output_shapes"
    value {
      list {
        shape {
          dim {
            size: 1000
          }
          dim {
            size: 16
          }
        }
      }
    }
  }
  attr {
    key: "use_locking"
    value {
      b: true
    }
  }
  attr {
    key: "validate_shape"
    value {
      b: true
    }
  }
}
node {
  name: "save/RestoreV2_10/tensor_names"
  op: "Const"
  attr {
    key: "_output_shapes"
    value {
      list {
        shape {
          dim {
            size: 1
          }
        }
      }
    }
  }
  attr {
    key: "dtype"
    value {
      type: DT_STRING
    }
  }
  attr {
    key: "value"
    value {
      tensor {
        dtype: DT_STRING
        tensor_shape {
          dim {
            size: 1
          }
        }
        string_val: "dnn/input_from_feature_columns/cat2_embedding/weights"
      }
    }
  }
}
node {
  name: "save/RestoreV2_10/shape_and_slices"
  op: "Const"
  attr {
    key: "_output_shapes"
    value {
      list {
        shape {
          dim {
            size: 1
          }
        }
      }
    }
  }
  attr {
    key: "dtype"
    value {
      type: DT_STRING
    }
  }
  attr {
    key: "value"
    value {
      tensor {
        dtype: DT_STRING
        tensor_shape {
          dim {
            size: 1
          }
        }
        string_val: "1000 16 0,1000:0,16"
      }
    }
  }
}
node {
  name: "save/RestoreV2_10"
  op: "RestoreV2"
  input: "save/Const"
  input: "save/RestoreV2_10/tensor_names"
  input: "save/RestoreV2_10/shape_and_slices"
  attr {
    key: "_output_shapes"
    value {
      list {
        shape {
          unknown_rank: true
        }
      }
    }
  }
  attr {
    key: "dtypes"
    value {
      list {
        type: DT_FLOAT
      }
    }
  }
}
node {
  name: "save/Assign_10"
  op: "Assign"
  input: "dnn/input_from_feature_columns/cat2_embedding/weights/part_0"
  input: "save/RestoreV2_10"
  attr {
    key: "T"
    value {
      type: DT_FLOAT
    }
  }
  attr {
    key: "_class"
    value {
      list {
        s: "loc:@dnn/input_from_feature_columns/cat2_embedding/weights/part_0"
      }
    }
  }
  attr {
    key: "_output_shapes"
    value {
      list {
        shape {
          dim {
            size: 1000
          }
          dim {
            size: 16
          }
        }
      }
    }
  }
  attr {
    key: "use_locking"
    value {
      b: true
    }
  }
  attr {
    key: "validate_shape"
    value {
      b: true
    }
  }
}
node {
  name: "save/RestoreV2_11/tensor_names"
  op: "Const"
  attr {
    key: "_output_shapes"
    value {
      list {
        shape {
          dim {
            size: 1
          }
        }
      }
    }
  }
  attr {
    key: "dtype"
    value {
      type: DT_STRING
    }
  }
  attr {
    key: "value"
    value {
      tensor {
        dtype: DT_STRING
        tensor_shape {
          dim {
            size: 1
          }
        }
        string_val: "dnn/input_from_feature_columns/cat2_embedding/weights/mbedding/weights/part_0/Adagrad"
      }
    }
  }
}
node {
  name: "save/RestoreV2_11/shape_and_slices"
  op: "Const"
  attr {
    key: "_output_shapes"
    value {
      list {
        shape {
          dim {
            size: 1
          }
        }
      }
    }
  }
  attr {
    key: "dtype"
    value {
      type: DT_STRING
    }
  }
  attr {
    key: "value"
    value {
      tensor {
        dtype: DT_STRING
        tensor_shape {
          dim {
            size: 1
          }
        }
        string_val: "1000 16 0,1000:0,16"
      }
    }
  }
}
node {
  name: "save/RestoreV2_11"
  op: "RestoreV2"
  input: "save/Const"
  input: "save/RestoreV2_11/tensor_names"
  input: "save/RestoreV2_11/shape_and_slices"
  attr {
    key: "_output_shapes"
    value {
      list {
        shape {
          unknown_rank: true
        }
      }
    }
  }
  attr {
    key: "dtypes"
    value {
      list {
        type: DT_FLOAT
      }
    }
  }
}
node {
  name: "save/Assign_11"
  op: "Assign"
  input: "dnn/regression_head/dnn/dnn/input_from_feature_columns/cat2_embedding/weights/part_0/Adagrad"
  input: "save/RestoreV2_11"
  attr {
    key: "T"
    value {
      type: DT_FLOAT
    }
  }
  attr {
    key: "_class"
    value {
      list {
        s: "loc:@dnn/input_from_feature_columns/cat2_embedding/weights/part_0"
      }
    }
  }
  attr {
    key: "_output_shapes"
    value {
      list {
        shape {
          dim {
            size: 1000
          }
          dim {
            size: 16
          }
        }
      }
    }
  }
  attr {
    key: "use_locking"
    value {
      b: true
    }
  }
  attr {
    key: "validate_shape"
    value {
      b: true
    }
  }
}
node {
  name: "save/RestoreV2_12/tensor_names"
  op: "Const"
  attr {
    key: "_output_shapes"
    value {
      list {
        shape {
          dim {
            size: 1
          }
        }
      }
    }
  }
  attr {
    key: "dtype"
    value {
      type: DT_STRING
    }
  }
  attr {
    key: "value"
    value {
      tensor {
        dtype: DT_STRING
        tensor_shape {
          dim {
            size: 1
          }
        }
        string_val: "dnn/input_from_feature_columns/cat3_embedding/weights"
      }
    }
  }
}
node {
  name: "save/RestoreV2_12/shape_and_slices"
  op: "Const"
  attr {
    key: "_output_shapes"
    value {
      list {
        shape {
          dim {
            size: 1
          }
        }
      }
    }
  }
  attr {
    key: "dtype"
    value {
      type: DT_STRING
    }
  }
  attr {
    key: "value"
    value {
      tensor {
        dtype: DT_STRING
        tensor_shape {
          dim {
            size: 1
          }
        }
        string_val: "1000 16 0,1000:0,16"
      }
    }
  }
}
node {
  name: "save/RestoreV2_12"
  op: "RestoreV2"
  input: "save/Const"
  input: "save/RestoreV2_12/tensor_names"
  input: "save/RestoreV2_12/shape_and_slices"
  attr {
    key: "_output_shapes"
    value {
      list {
        shape {
          unknown_rank: true
        }
      }
    }
  }
  attr {
    key: "dtypes"
    value {
      list {
        type: DT_FLOAT
      }
    }
  }
}
node {
  name: "save/Assign_12"
  op: "Assign"
  input: "dnn/input_from_feature_columns/cat3_embedding/weights/part_0"
  input: "save/RestoreV2_12"
  attr {
    key: "T"
    value {
      type: DT_FLOAT
    }
  }
  attr {
    key: "_class"
    value {
      list {
        s: "loc:@dnn/input_from_feature_columns/cat3_embedding/weights/part_0"
      }
    }
  }
  attr {
    key: "_output_shapes"
    value {
      list {
        shape {
          dim {
            size: 1000
          }
          dim {
            size: 16
          }
        }
      }
    }
  }
  attr {
    key: "use_locking"
    value {
      b: true
    }
  }
  attr {
    key: "validate_shape"
    value {
      b: true
    }
  }
}
node {
  name: "save/RestoreV2_13/tensor_names"
  op: "Const"
  attr {
    key: "_output_shapes"
    value {
      list {
        shape {
          dim {
            size: 1
          }
        }
      }
    }
  }
  attr {
    key: "dtype"
    value {
      type: DT_STRING
    }
  }
  attr {
    key: "value"
    value {
      tensor {
        dtype: DT_STRING
        tensor_shape {
          dim {
            size: 1
          }
        }
        string_val: "dnn/input_from_feature_columns/cat3_embedding/weights/mbedding/weights/part_0/Adagrad"
      }
    }
  }
}
node {
  name: "save/RestoreV2_13/shape_and_slices"
  op: "Const"
  attr {
    key: "_output_shapes"
    value {
      list {
        shape {
          dim {
            size: 1
          }
        }
      }
    }
  }
  attr {
    key: "dtype"
    value {
      type: DT_STRING
    }
  }
  attr {
    key: "value"
    value {
      tensor {
        dtype: DT_STRING
        tensor_shape {
          dim {
            size: 1
          }
        }
        string_val: "1000 16 0,1000:0,16"
      }
    }
  }
}
node {
  name: "save/RestoreV2_13"
  op: "RestoreV2"
  input: "save/Const"
  input: "save/RestoreV2_13/tensor_names"
  input: "save/RestoreV2_13/shape_and_slices"
  attr {
    key: "_output_shapes"
    value {
      list {
        shape {
          unknown_rank: true
        }
      }
    }
  }
  attr {
    key: "dtypes"
    value {
      list {
        type: DT_FLOAT
      }
    }
  }
}
node {
  name: "save/Assign_13"
  op: "Assign"
  input: "dnn/regression_head/dnn/dnn/input_from_feature_columns/cat3_embedding/weights/part_0/Adagrad"
  input: "save/RestoreV2_13"
  attr {
    key: "T"
    value {
      type: DT_FLOAT
    }
  }
  attr {
    key: "_class"
    value {
      list {
        s: "loc:@dnn/input_from_feature_columns/cat3_embedding/weights/part_0"
      }
    }
  }
  attr {
    key: "_output_shapes"
    value {
      list {
        shape {
          dim {
            size: 1000
          }
          dim {
            size: 16
          }
        }
      }
    }
  }
  attr {
    key: "use_locking"
    value {
      b: true
    }
  }
  attr {
    key: "validate_shape"
    value {
      b: true
    }
  }
}
node {
  name: "save/RestoreV2_14/tensor_names"
  op: "Const"
  attr {
    key: "_output_shapes"
    value {
      list {
        shape {
          dim {
            size: 1
          }
        }
      }
    }
  }
  attr {
    key: "dtype"
    value {
      type: DT_STRING
    }
  }
  attr {
    key: "value"
    value {
      tensor {
        dtype: DT_STRING
        tensor_shape {
          dim {
            size: 1
          }
        }
        string_val: "dnn/input_from_feature_columns/cat4_embedding/weights"
      }
    }
  }
}
node {
  name: "save/RestoreV2_14/shape_and_slices"
  op: "Const"
  attr {
    key: "_output_shapes"
    value {
      list {
        shape {
          dim {
            size: 1
          }
        }
      }
    }
  }
  attr {
    key: "dtype"
    value {
      type: DT_STRING
    }
  }
  attr {
    key: "value"
    value {
      tensor {
        dtype: DT_STRING
        tensor_shape {
          dim {
            size: 1
          }
        }
        string_val: "1000 16 0,1000:0,16"
      }
    }
  }
}
node {
  name: "save/RestoreV2_14"
  op: "RestoreV2"
  input: "save/Const"
  input: "save/RestoreV2_14/tensor_names"
  input: "save/RestoreV2_14/shape_and_slices"
  attr {
    key: "_output_shapes"
    value {
      list {
        shape {
          unknown_rank: true
        }
      }
    }
  }
  attr {
    key: "dtypes"
    value {
      list {
        type: DT_FLOAT
      }
    }
  }
}
node {
  name: "save/Assign_14"
  op: "Assign"
  input: "dnn/input_from_feature_columns/cat4_embedding/weights/part_0"
  input: "save/RestoreV2_14"
  attr {
    key: "T"
    value {
      type: DT_FLOAT
    }
  }
  attr {
    key: "_class"
    value {
      list {
        s: "loc:@dnn/input_from_feature_columns/cat4_embedding/weights/part_0"
      }
    }
  }
  attr {
    key: "_output_shapes"
    value {
      list {
        shape {
          dim {
            size: 1000
          }
          dim {
            size: 16
          }
        }
      }
    }
  }
  attr {
    key: "use_locking"
    value {
      b: true
    }
  }
  attr {
    key: "validate_shape"
    value {
      b: true
    }
  }
}
node {
  name: "save/RestoreV2_15/tensor_names"
  op: "Const"
  attr {
    key: "_output_shapes"
    value {
      list {
        shape {
          dim {
            size: 1
          }
        }
      }
    }
  }
  attr {
    key: "dtype"
    value {
      type: DT_STRING
    }
  }
  attr {
    key: "value"
    value {
      tensor {
        dtype: DT_STRING
        tensor_shape {
          dim {
            size: 1
          }
        }
        string_val: "dnn/input_from_feature_columns/cat4_embedding/weights/mbedding/weights/part_0/Adagrad"
      }
    }
  }
}
node {
  name: "save/RestoreV2_15/shape_and_slices"
  op: "Const"
  attr {
    key: "_output_shapes"
    value {
      list {
        shape {
          dim {
            size: 1
          }
        }
      }
    }
  }
  attr {
    key: "dtype"
    value {
      type: DT_STRING
    }
  }
  attr {
    key: "value"
    value {
      tensor {
        dtype: DT_STRING
        tensor_shape {
          dim {
            size: 1
          }
        }
        string_val: "1000 16 0,1000:0,16"
      }
    }
  }
}
node {
  name: "save/RestoreV2_15"
  op: "RestoreV2"
  input: "save/Const"
  input: "save/RestoreV2_15/tensor_names"
  input: "save/RestoreV2_15/shape_and_slices"
  attr {
    key: "_output_shapes"
    value {
      list {
        shape {
          unknown_rank: true
        }
      }
    }
  }
  attr {
    key: "dtypes"
    value {
      list {
        type: DT_FLOAT
      }
    }
  }
}
node {
  name: "save/Assign_15"
  op: "Assign"
  input: "dnn/regression_head/dnn/dnn/input_from_feature_columns/cat4_embedding/weights/part_0/Adagrad"
  input: "save/RestoreV2_15"
  attr {
    key: "T"
    value {
      type: DT_FLOAT
    }
  }
  attr {
    key: "_class"
    value {
      list {
        s: "loc:@dnn/input_from_feature_columns/cat4_embedding/weights/part_0"
      }
    }
  }
  attr {
    key: "_output_shapes"
    value {
      list {
        shape {
          dim {
            size: 1000
          }
          dim {
            size: 16
          }
        }
      }
    }
  }
  attr {
    key: "use_locking"
    value {
      b: true
    }
  }
  attr {
    key: "validate_shape"
    value {
      b: true
    }
  }
}
node {
  name: "save/RestoreV2_16/tensor_names"
  op: "Const"
  attr {
    key: "_output_shapes"
    value {
      list {
        shape {
          dim {
            size: 1
          }
        }
      }
    }
  }
  attr {
    key: "dtype"
    value {
      type: DT_STRING
    }
  }
  attr {
    key: "value"
    value {
      tensor {
        dtype: DT_STRING
        tensor_shape {
          dim {
            size: 1
          }
        }
        string_val: "dnn/input_from_feature_columns/cat5_embedding/weights"
      }
    }
  }
}
node {
  name: "save/RestoreV2_16/shape_and_slices"
  op: "Const"
  attr {
    key: "_output_shapes"
    value {
      list {
        shape {
          dim {
            size: 1
          }
        }
      }
    }
  }
  attr {
    key: "dtype"
    value {
      type: DT_STRING
    }
  }
  attr {
    key: "value"
    value {
      tensor {
        dtype: DT_STRING
        tensor_shape {
          dim {
            size: 1
          }
        }
        string_val: "1000 16 0,1000:0,16"
      }
    }
  }
}
node {
  name: "save/RestoreV2_16"
  op: "RestoreV2"
  input: "save/Const"
  input: "save/RestoreV2_16/tensor_names"
  input: "save/RestoreV2_16/shape_and_slices"
  attr {
    key: "_output_shapes"
    value {
      list {
        shape {
          unknown_rank: true
        }
      }
    }
  }
  attr {
    key: "dtypes"
    value {
      list {
        type: DT_FLOAT
      }
    }
  }
}
node {
  name: "save/Assign_16"
  op: "Assign"
  input: "dnn/input_from_feature_columns/cat5_embedding/weights/part_0"
  input: "save/RestoreV2_16"
  attr {
    key: "T"
    value {
      type: DT_FLOAT
    }
  }
  attr {
    key: "_class"
    value {
      list {
        s: "loc:@dnn/input_from_feature_columns/cat5_embedding/weights/part_0"
      }
    }
  }
  attr {
    key: "_output_shapes"
    value {
      list {
        shape {
          dim {
            size: 1000
          }
          dim {
            size: 16
          }
        }
      }
    }
  }
  attr {
    key: "use_locking"
    value {
      b: true
    }
  }
  attr {
    key: "validate_shape"
    value {
      b: true
    }
  }
}
node {
  name: "save/RestoreV2_17/tensor_names"
  op: "Const"
  attr {
    key: "_output_shapes"
    value {
      list {
        shape {
          dim {
            size: 1
          }
        }
      }
    }
  }
  attr {
    key: "dtype"
    value {
      type: DT_STRING
    }
  }
  attr {
    key: "value"
    value {
      tensor {
        dtype: DT_STRING
        tensor_shape {
          dim {
            size: 1
          }
        }
        string_val: "dnn/input_from_feature_columns/cat5_embedding/weights/mbedding/weights/part_0/Adagrad"
      }
    }
  }
}
node {
  name: "save/RestoreV2_17/shape_and_slices"
  op: "Const"
  attr {
    key: "_output_shapes"
    value {
      list {
        shape {
          dim {
            size: 1
          }
        }
      }
    }
  }
  attr {
    key: "dtype"
    value {
      type: DT_STRING
    }
  }
  attr {
    key: "value"
    value {
      tensor {
        dtype: DT_STRING
        tensor_shape {
          dim {
            size: 1
          }
        }
        string_val: "1000 16 0,1000:0,16"
      }
    }
  }
}
node {
  name: "save/RestoreV2_17"
  op: "RestoreV2"
  input: "save/Const"
  input: "save/RestoreV2_17/tensor_names"
  input: "save/RestoreV2_17/shape_and_slices"
  attr {
    key: "_output_shapes"
    value {
      list {
        shape {
          unknown_rank: true
        }
      }
    }
  }
  attr {
    key: "dtypes"
    value {
      list {
        type: DT_FLOAT
      }
    }
  }
}
node {
  name: "save/Assign_17"
  op: "Assign"
  input: "dnn/regression_head/dnn/dnn/input_from_feature_columns/cat5_embedding/weights/part_0/Adagrad"
  input: "save/RestoreV2_17"
  attr {
    key: "T"
    value {
      type: DT_FLOAT
    }
  }
  attr {
    key: "_class"
    value {
      list {
        s: "loc:@dnn/input_from_feature_columns/cat5_embedding/weights/part_0"
      }
    }
  }
  attr {
    key: "_output_shapes"
    value {
      list {
        shape {
          dim {
            size: 1000
          }
          dim {
            size: 16
          }
        }
      }
    }
  }
  attr {
    key: "use_locking"
    value {
      b: true
    }
  }
  attr {
    key: "validate_shape"
    value {
      b: true
    }
  }
}
node {
  name: "save/RestoreV2_18/tensor_names"
  op: "Const"
  attr {
    key: "_output_shapes"
    value {
      list {
        shape {
          dim {
            size: 1
          }
        }
      }
    }
  }
  attr {
    key: "dtype"
    value {
      type: DT_STRING
    }
  }
  attr {
    key: "value"
    value {
      tensor {
        dtype: DT_STRING
        tensor_shape {
          dim {
            size: 1
          }
        }
        string_val: "dnn/input_from_feature_columns/cat6_embedding/weights"
      }
    }
  }
}
node {
  name: "save/RestoreV2_18/shape_and_slices"
  op: "Const"
  attr {
    key: "_output_shapes"
    value {
      list {
        shape {
          dim {
            size: 1
          }
        }
      }
    }
  }
  attr {
    key: "dtype"
    value {
      type: DT_STRING
    }
  }
  attr {
    key: "value"
    value {
      tensor {
        dtype: DT_STRING
        tensor_shape {
          dim {
            size: 1
          }
        }
        string_val: "1000 16 0,1000:0,16"
      }
    }
  }
}
node {
  name: "save/RestoreV2_18"
  op: "RestoreV2"
  input: "save/Const"
  input: "save/RestoreV2_18/tensor_names"
  input: "save/RestoreV2_18/shape_and_slices"
  attr {
    key: "_output_shapes"
    value {
      list {
        shape {
          unknown_rank: true
        }
      }
    }
  }
  attr {
    key: "dtypes"
    value {
      list {
        type: DT_FLOAT
      }
    }
  }
}
node {
  name: "save/Assign_18"
  op: "Assign"
  input: "dnn/input_from_feature_columns/cat6_embedding/weights/part_0"
  input: "save/RestoreV2_18"
  attr {
    key: "T"
    value {
      type: DT_FLOAT
    }
  }
  attr {
    key: "_class"
    value {
      list {
        s: "loc:@dnn/input_from_feature_columns/cat6_embedding/weights/part_0"
      }
    }
  }
  attr {
    key: "_output_shapes"
    value {
      list {
        shape {
          dim {
            size: 1000
          }
          dim {
            size: 16
          }
        }
      }
    }
  }
  attr {
    key: "use_locking"
    value {
      b: true
    }
  }
  attr {
    key: "validate_shape"
    value {
      b: true
    }
  }
}
node {
  name: "save/RestoreV2_19/tensor_names"
  op: "Const"
  attr {
    key: "_output_shapes"
    value {
      list {
        shape {
          dim {
            size: 1
          }
        }
      }
    }
  }
  attr {
    key: "dtype"
    value {
      type: DT_STRING
    }
  }
  attr {
    key: "value"
    value {
      tensor {
        dtype: DT_STRING
        tensor_shape {
          dim {
            size: 1
          }
        }
        string_val: "dnn/input_from_feature_columns/cat6_embedding/weights/mbedding/weights/part_0/Adagrad"
      }
    }
  }
}
node {
  name: "save/RestoreV2_19/shape_and_slices"
  op: "Const"
  attr {
    key: "_output_shapes"
    value {
      list {
        shape {
          dim {
            size: 1
          }
        }
      }
    }
  }
  attr {
    key: "dtype"
    value {
      type: DT_STRING
    }
  }
  attr {
    key: "value"
    value {
      tensor {
        dtype: DT_STRING
        tensor_shape {
          dim {
            size: 1
          }
        }
        string_val: "1000 16 0,1000:0,16"
      }
    }
  }
}
node {
  name: "save/RestoreV2_19"
  op: "RestoreV2"
  input: "save/Const"
  input: "save/RestoreV2_19/tensor_names"
  input: "save/RestoreV2_19/shape_and_slices"
  attr {
    key: "_output_shapes"
    value {
      list {
        shape {
          unknown_rank: true
        }
      }
    }
  }
  attr {
    key: "dtypes"
    value {
      list {
        type: DT_FLOAT
      }
    }
  }
}
node {
  name: "save/Assign_19"
  op: "Assign"
  input: "dnn/regression_head/dnn/dnn/input_from_feature_columns/cat6_embedding/weights/part_0/Adagrad"
  input: "save/RestoreV2_19"
  attr {
    key: "T"
    value {
      type: DT_FLOAT
    }
  }
  attr {
    key: "_class"
    value {
      list {
        s: "loc:@dnn/input_from_feature_columns/cat6_embedding/weights/part_0"
      }
    }
  }
  attr {
    key: "_output_shapes"
    value {
      list {
        shape {
          dim {
            size: 1000
          }
          dim {
            size: 16
          }
        }
      }
    }
  }
  attr {
    key: "use_locking"
    value {
      b: true
    }
  }
  attr {
    key: "validate_shape"
    value {
      b: true
    }
  }
}
node {
  name: "save/RestoreV2_20/tensor_names"
  op: "Const"
  attr {
    key: "_output_shapes"
    value {
      list {
        shape {
          dim {
            size: 1
          }
        }
      }
    }
  }
  attr {
    key: "dtype"
    value {
      type: DT_STRING
    }
  }
  attr {
    key: "value"
    value {
      tensor {
        dtype: DT_STRING
        tensor_shape {
          dim {
            size: 1
          }
        }
        string_val: "dnn/input_from_feature_columns/cat7_embedding/weights"
      }
    }
  }
}
node {
  name: "save/RestoreV2_20/shape_and_slices"
  op: "Const"
  attr {
    key: "_output_shapes"
    value {
      list {
        shape {
          dim {
            size: 1
          }
        }
      }
    }
  }
  attr {
    key: "dtype"
    value {
      type: DT_STRING
    }
  }
  attr {
    key: "value"
    value {
      tensor {
        dtype: DT_STRING
        tensor_shape {
          dim {
            size: 1
          }
        }
        string_val: "1000 16 0,1000:0,16"
      }
    }
  }
}
node {
  name: "save/RestoreV2_20"
  op: "RestoreV2"
  input: "save/Const"
  input: "save/RestoreV2_20/tensor_names"
  input: "save/RestoreV2_20/shape_and_slices"
  attr {
    key: "_output_shapes"
    value {
      list {
        shape {
          unknown_rank: true
        }
      }
    }
  }
  attr {
    key: "dtypes"
    value {
      list {
        type: DT_FLOAT
      }
    }
  }
}
node {
  name: "save/Assign_20"
  op: "Assign"
  input: "dnn/input_from_feature_columns/cat7_embedding/weights/part_0"
  input: "save/RestoreV2_20"
  attr {
    key: "T"
    value {
      type: DT_FLOAT
    }
  }
  attr {
    key: "_class"
    value {
      list {
        s: "loc:@dnn/input_from_feature_columns/cat7_embedding/weights/part_0"
      }
    }
  }
  attr {
    key: "_output_shapes"
    value {
      list {
        shape {
          dim {
            size: 1000
          }
          dim {
            size: 16
          }
        }
      }
    }
  }
  attr {
    key: "use_locking"
    value {
      b: true
    }
  }
  attr {
    key: "validate_shape"
    value {
      b: true
    }
  }
}
node {
  name: "save/RestoreV2_21/tensor_names"
  op: "Const"
  attr {
    key: "_output_shapes"
    value {
      list {
        shape {
          dim {
            size: 1
          }
        }
      }
    }
  }
  attr {
    key: "dtype"
    value {
      type: DT_STRING
    }
  }
  attr {
    key: "value"
    value {
      tensor {
        dtype: DT_STRING
        tensor_shape {
          dim {
            size: 1
          }
        }
        string_val: "dnn/input_from_feature_columns/cat7_embedding/weights/mbedding/weights/part_0/Adagrad"
      }
    }
  }
}
node {
  name: "save/RestoreV2_21/shape_and_slices"
  op: "Const"
  attr {
    key: "_output_shapes"
    value {
      list {
        shape {
          dim {
            size: 1
          }
        }
      }
    }
  }
  attr {
    key: "dtype"
    value {
      type: DT_STRING
    }
  }
  attr {
    key: "value"
    value {
      tensor {
        dtype: DT_STRING
        tensor_shape {
          dim {
            size: 1
          }
        }
        string_val: "1000 16 0,1000:0,16"
      }
    }
  }
}
node {
  name: "save/RestoreV2_21"
  op: "RestoreV2"
  input: "save/Const"
  input: "save/RestoreV2_21/tensor_names"
  input: "save/RestoreV2_21/shape_and_slices"
  attr {
    key: "_output_shapes"
    value {
      list {
        shape {
          unknown_rank: true
        }
      }
    }
  }
  attr {
    key: "dtypes"
    value {
      list {
        type: DT_FLOAT
      }
    }
  }
}
node {
  name: "save/Assign_21"
  op: "Assign"
  input: "dnn/regression_head/dnn/dnn/input_from_feature_columns/cat7_embedding/weights/part_0/Adagrad"
  input: "save/RestoreV2_21"
  attr {
    key: "T"
    value {
      type: DT_FLOAT
    }
  }
  attr {
    key: "_class"
    value {
      list {
        s: "loc:@dnn/input_from_feature_columns/cat7_embedding/weights/part_0"
      }
    }
  }
  attr {
    key: "_output_shapes"
    value {
      list {
        shape {
          dim {
            size: 1000
          }
          dim {
            size: 16
          }
        }
      }
    }
  }
  attr {
    key: "use_locking"
    value {
      b: true
    }
  }
  attr {
    key: "validate_shape"
    value {
      b: true
    }
  }
}
node {
  name: "save/RestoreV2_22/tensor_names"
  op: "Const"
  attr {
    key: "_output_shapes"
    value {
      list {
        shape {
          dim {
            size: 1
          }
        }
      }
    }
  }
  attr {
    key: "dtype"
    value {
      type: DT_STRING
    }
  }
  attr {
    key: "value"
    value {
      tensor {
        dtype: DT_STRING
        tensor_shape {
          dim {
            size: 1
          }
        }
        string_val: "dnn/input_from_feature_columns/cat8_embedding/weights"
      }
    }
  }
}
node {
  name: "save/RestoreV2_22/shape_and_slices"
  op: "Const"
  attr {
    key: "_output_shapes"
    value {
      list {
        shape {
          dim {
            size: 1
          }
        }
      }
    }
  }
  attr {
    key: "dtype"
    value {
      type: DT_STRING
    }
  }
  attr {
    key: "value"
    value {
      tensor {
        dtype: DT_STRING
        tensor_shape {
          dim {
            size: 1
          }
        }
        string_val: "1000 16 0,1000:0,16"
      }
    }
  }
}
node {
  name: "save/RestoreV2_22"
  op: "RestoreV2"
  input: "save/Const"
  input: "save/RestoreV2_22/tensor_names"
  input: "save/RestoreV2_22/shape_and_slices"
  attr {
    key: "_output_shapes"
    value {
      list {
        shape {
          unknown_rank: true
        }
      }
    }
  }
  attr {
    key: "dtypes"
    value {
      list {
        type: DT_FLOAT
      }
    }
  }
}
node {
  name: "save/Assign_22"
  op: "Assign"
  input: "dnn/input_from_feature_columns/cat8_embedding/weights/part_0"
  input: "save/RestoreV2_22"
  attr {
    key: "T"
    value {
      type: DT_FLOAT
    }
  }
  attr {
    key: "_class"
    value {
      list {
        s: "loc:@dnn/input_from_feature_columns/cat8_embedding/weights/part_0"
      }
    }
  }
  attr {
    key: "_output_shapes"
    value {
      list {
        shape {
          dim {
            size: 1000
          }
          dim {
            size: 16
          }
        }
      }
    }
  }
  attr {
    key: "use_locking"
    value {
      b: true
    }
  }
  attr {
    key: "validate_shape"
    value {
      b: true
    }
  }
}
node {
  name: "save/RestoreV2_23/tensor_names"
  op: "Const"
  attr {
    key: "_output_shapes"
    value {
      list {
        shape {
          dim {
            size: 1
          }
        }
      }
    }
  }
  attr {
    key: "dtype"
    value {
      type: DT_STRING
    }
  }
  attr {
    key: "value"
    value {
      tensor {
        dtype: DT_STRING
        tensor_shape {
          dim {
            size: 1
          }
        }
        string_val: "dnn/input_from_feature_columns/cat8_embedding/weights/mbedding/weights/part_0/Adagrad"
      }
    }
  }
}
node {
  name: "save/RestoreV2_23/shape_and_slices"
  op: "Const"
  attr {
    key: "_output_shapes"
    value {
      list {
        shape {
          dim {
            size: 1
          }
        }
      }
    }
  }
  attr {
    key: "dtype"
    value {
      type: DT_STRING
    }
  }
  attr {
    key: "value"
    value {
      tensor {
        dtype: DT_STRING
        tensor_shape {
          dim {
            size: 1
          }
        }
        string_val: "1000 16 0,1000:0,16"
      }
    }
  }
}
node {
  name: "save/RestoreV2_23"
  op: "RestoreV2"
  input: "save/Const"
  input: "save/RestoreV2_23/tensor_names"
  input: "save/RestoreV2_23/shape_and_slices"
  attr {
    key: "_output_shapes"
    value {
      list {
        shape {
          unknown_rank: true
        }
      }
    }
  }
  attr {
    key: "dtypes"
    value {
      list {
        type: DT_FLOAT
      }
    }
  }
}
node {
  name: "save/Assign_23"
  op: "Assign"
  input: "dnn/regression_head/dnn/dnn/input_from_feature_columns/cat8_embedding/weights/part_0/Adagrad"
  input: "save/RestoreV2_23"
  attr {
    key: "T"
    value {
      type: DT_FLOAT
    }
  }
  attr {
    key: "_class"
    value {
      list {
        s: "loc:@dnn/input_from_feature_columns/cat8_embedding/weights/part_0"
      }
    }
  }
  attr {
    key: "_output_shapes"
    value {
      list {
        shape {
          dim {
            size: 1000
          }
          dim {
            size: 16
          }
        }
      }
    }
  }
  attr {
    key: "use_locking"
    value {
      b: true
    }
  }
  attr {
    key: "validate_shape"
    value {
      b: true
    }
  }
}
node {
  name: "save/RestoreV2_24/tensor_names"
  op: "Const"
  attr {
    key: "_output_shapes"
    value {
      list {
        shape {
          dim {
            size: 1
          }
        }
      }
    }
  }
  attr {
    key: "dtype"
    value {
      type: DT_STRING
    }
  }
  attr {
    key: "value"
    value {
      tensor {
        dtype: DT_STRING
        tensor_shape {
          dim {
            size: 1
          }
        }
        string_val: "dnn/input_from_feature_columns/cat9_embedding/weights"
      }
    }
  }
}
node {
  name: "save/RestoreV2_24/shape_and_slices"
  op: "Const"
  attr {
    key: "_output_shapes"
    value {
      list {
        shape {
          dim {
            size: 1
          }
        }
      }
    }
  }
  attr {
    key: "dtype"
    value {
      type: DT_STRING
    }
  }
  attr {
    key: "value"
    value {
      tensor {
        dtype: DT_STRING
        tensor_shape {
          dim {
            size: 1
          }
        }
        string_val: "1000 16 0,1000:0,16"
      }
    }
  }
}
node {
  name: "save/RestoreV2_24"
  op: "RestoreV2"
  input: "save/Const"
  input: "save/RestoreV2_24/tensor_names"
  input: "save/RestoreV2_24/shape_and_slices"
  attr {
    key: "_output_shapes"
    value {
      list {
        shape {
          unknown_rank: true
        }
      }
    }
  }
  attr {
    key: "dtypes"
    value {
      list {
        type: DT_FLOAT
      }
    }
  }
}
node {
  name: "save/Assign_24"
  op: "Assign"
  input: "dnn/input_from_feature_columns/cat9_embedding/weights/part_0"
  input: "save/RestoreV2_24"
  attr {
    key: "T"
    value {
      type: DT_FLOAT
    }
  }
  attr {
    key: "_class"
    value {
      list {
        s: "loc:@dnn/input_from_feature_columns/cat9_embedding/weights/part_0"
      }
    }
  }
  attr {
    key: "_output_shapes"
    value {
      list {
        shape {
          dim {
            size: 1000
          }
          dim {
            size: 16
          }
        }
      }
    }
  }
  attr {
    key: "use_locking"
    value {
      b: true
    }
  }
  attr {
    key: "validate_shape"
    value {
      b: true
    }
  }
}
node {
  name: "save/RestoreV2_25/tensor_names"
  op: "Const"
  attr {
    key: "_output_shapes"
    value {
      list {
        shape {
          dim {
            size: 1
          }
        }
      }
    }
  }
  attr {
    key: "dtype"
    value {
      type: DT_STRING
    }
  }
  attr {
    key: "value"
    value {
      tensor {
        dtype: DT_STRING
        tensor_shape {
          dim {
            size: 1
          }
        }
        string_val: "dnn/input_from_feature_columns/cat9_embedding/weights/mbedding/weights/part_0/Adagrad"
      }
    }
  }
}
node {
  name: "save/RestoreV2_25/shape_and_slices"
  op: "Const"
  attr {
    key: "_output_shapes"
    value {
      list {
        shape {
          dim {
            size: 1
          }
        }
      }
    }
  }
  attr {
    key: "dtype"
    value {
      type: DT_STRING
    }
  }
  attr {
    key: "value"
    value {
      tensor {
        dtype: DT_STRING
        tensor_shape {
          dim {
            size: 1
          }
        }
        string_val: "1000 16 0,1000:0,16"
      }
    }
  }
}
node {
  name: "save/RestoreV2_25"
  op: "RestoreV2"
  input: "save/Const"
  input: "save/RestoreV2_25/tensor_names"
  input: "save/RestoreV2_25/shape_and_slices"
  attr {
    key: "_output_shapes"
    value {
      list {
        shape {
          unknown_rank: true
        }
      }
    }
  }
  attr {
    key: "dtypes"
    value {
      list {
        type: DT_FLOAT
      }
    }
  }
}
node {
  name: "save/Assign_25"
  op: "Assign"
  input: "dnn/regression_head/dnn/dnn/input_from_feature_columns/cat9_embedding/weights/part_0/Adagrad"
  input: "save/RestoreV2_25"
  attr {
    key: "T"
    value {
      type: DT_FLOAT
    }
  }
  attr {
    key: "_class"
    value {
      list {
        s: "loc:@dnn/input_from_feature_columns/cat9_embedding/weights/part_0"
      }
    }
  }
  attr {
    key: "_output_shapes"
    value {
      list {
        shape {
          dim {
            size: 1000
          }
          dim {
            size: 16
          }
        }
      }
    }
  }
  attr {
    key: "use_locking"
    value {
      b: true
    }
  }
  attr {
    key: "validate_shape"
    value {
      b: true
    }
  }
}
node {
  name: "save/RestoreV2_26/tensor_names"
  op: "Const"
  attr {
    key: "_output_shapes"
    value {
      list {
        shape {
          dim {
            size: 1
          }
        }
      }
    }
  }
  attr {
    key: "dtype"
    value {
      type: DT_STRING
    }
  }
  attr {
    key: "value"
    value {
      tensor {
        dtype: DT_STRING
        tensor_shape {
          dim {
            size: 1
          }
        }
        string_val: "dnn/logits/biases"
      }
    }
  }
}
node {
  name: "save/RestoreV2_26/shape_and_slices"
  op: "Const"
  attr {
    key: "_output_shapes"
    value {
      list {
        shape {
          dim {
            size: 1
          }
        }
      }
    }
  }
  attr {
    key: "dtype"
    value {
      type: DT_STRING
    }
  }
  attr {
    key: "value"
    value {
      tensor {
        dtype: DT_STRING
        tensor_shape {
          dim {
            size: 1
          }
        }
        string_val: "1 0,1"
      }
    }
  }
}
node {
  name: "save/RestoreV2_26"
  op: "RestoreV2"
  input: "save/Const"
  input: "save/RestoreV2_26/tensor_names"
  input: "save/RestoreV2_26/shape_and_slices"
  attr {
    key: "_output_shapes"
    value {
      list {
        shape {
          unknown_rank: true
        }
      }
    }
  }
  attr {
    key: "dtypes"
    value {
      list {
        type: DT_FLOAT
      }
    }
  }
}
node {
  name: "save/Assign_26"
  op: "Assign"
  input: "dnn/logits/biases/part_0"
  input: "save/RestoreV2_26"
  attr {
    key: "T"
    value {
      type: DT_FLOAT
    }
  }
  attr {
    key: "_class"
    value {
      list {
        s: "loc:@dnn/logits/biases/part_0"
      }
    }
  }
  attr {
    key: "_output_shapes"
    value {
      list {
        shape {
          dim {
            size: 1
          }
        }
      }
    }
  }
  attr {
    key: "use_locking"
    value {
      b: true
    }
  }
  attr {
    key: "validate_shape"
    value {
      b: true
    }
  }
}
node {
  name: "save/RestoreV2_27/tensor_names"
  op: "Const"
  attr {
    key: "_output_shapes"
    value {
      list {
        shape {
          dim {
            size: 1
          }
        }
      }
    }
  }
  attr {
    key: "dtype"
    value {
      type: DT_STRING
    }
  }
  attr {
    key: "value"
    value {
      tensor {
        dtype: DT_STRING
        tensor_shape {
          dim {
            size: 1
          }
        }
        string_val: "dnn/logits/biases/nn/logits/biases/part_0/Adagrad"
      }
    }
  }
}
node {
  name: "save/RestoreV2_27/shape_and_slices"
  op: "Const"
  attr {
    key: "_output_shapes"
    value {
      list {
        shape {
          dim {
            size: 1
          }
        }
      }
    }
  }
  attr {
    key: "dtype"
    value {
      type: DT_STRING
    }
  }
  attr {
    key: "value"
    value {
      tensor {
        dtype: DT_STRING
        tensor_shape {
          dim {
            size: 1
          }
        }
        string_val: "1 0,1"
      }
    }
  }
}
node {
  name: "save/RestoreV2_27"
  op: "RestoreV2"
  input: "save/Const"
  input: "save/RestoreV2_27/tensor_names"
  input: "save/RestoreV2_27/shape_and_slices"
  attr {
    key: "_output_shapes"
    value {
      list {
        shape {
          unknown_rank: true
        }
      }
    }
  }
  attr {
    key: "dtypes"
    value {
      list {
        type: DT_FLOAT
      }
    }
  }
}
node {
  name: "save/Assign_27"
  op: "Assign"
  input: "dnn/regression_head/dnn/dnn/logits/biases/part_0/Adagrad"
  input: "save/RestoreV2_27"
  attr {
    key: "T"
    value {
      type: DT_FLOAT
    }
  }
  attr {
    key: "_class"
    value {
      list {
        s: "loc:@dnn/logits/biases/part_0"
      }
    }
  }
  attr {
    key: "_output_shapes"
    value {
      list {
        shape {
          dim {
            size: 1
          }
        }
      }
    }
  }
  attr {
    key: "use_locking"
    value {
      b: true
    }
  }
  attr {
    key: "validate_shape"
    value {
      b: true
    }
  }
}
node {
  name: "save/RestoreV2_28/tensor_names"
  op: "Const"
  attr {
    key: "_output_shapes"
    value {
      list {
        shape {
          dim {
            size: 1
          }
        }
      }
    }
  }
  attr {
    key: "dtype"
    value {
      type: DT_STRING
    }
  }
  attr {
    key: "value"
    value {
      tensor {
        dtype: DT_STRING
        tensor_shape {
          dim {
            size: 1
          }
        }
        string_val: "dnn/logits/weights"
      }
    }
  }
}
node {
  name: "save/RestoreV2_28/shape_and_slices"
  op: "Const"
  attr {
    key: "_output_shapes"
    value {
      list {
        shape {
          dim {
            size: 1
          }
        }
      }
    }
  }
  attr {
    key: "dtype"
    value {
      type: DT_STRING
    }
  }
  attr {
    key: "value"
    value {
      tensor {
        dtype: DT_STRING
        tensor_shape {
          dim {
            size: 1
          }
        }
        string_val: "10 1 0,10:0,1"
      }
    }
  }
}
node {
  name: "save/RestoreV2_28"
  op: "RestoreV2"
  input: "save/Const"
  input: "save/RestoreV2_28/tensor_names"
  input: "save/RestoreV2_28/shape_and_slices"
  attr {
    key: "_output_shapes"
    value {
      list {
        shape {
          unknown_rank: true
        }
      }
    }
  }
  attr {
    key: "dtypes"
    value {
      list {
        type: DT_FLOAT
      }
    }
  }
}
node {
  name: "save/Assign_28"
  op: "Assign"
  input: "dnn/logits/weights/part_0"
  input: "save/RestoreV2_28"
  attr {
    key: "T"
    value {
      type: DT_FLOAT
    }
  }
  attr {
    key: "_class"
    value {
      list {
        s: "loc:@dnn/logits/weights/part_0"
      }
    }
  }
  attr {
    key: "_output_shapes"
    value {
      list {
        shape {
          dim {
            size: 10
          }
          dim {
            size: 1
          }
        }
      }
    }
  }
  attr {
    key: "use_locking"
    value {
      b: true
    }
  }
  attr {
    key: "validate_shape"
    value {
      b: true
    }
  }
}
node {
  name: "save/RestoreV2_29/tensor_names"
  op: "Const"
  attr {
    key: "_output_shapes"
    value {
      list {
        shape {
          dim {
            size: 1
          }
        }
      }
    }
  }
  attr {
    key: "dtype"
    value {
      type: DT_STRING
    }
  }
  attr {
    key: "value"
    value {
      tensor {
        dtype: DT_STRING
        tensor_shape {
          dim {
            size: 1
          }
        }
        string_val: "dnn/logits/weights/n/logits/weights/part_0/Adagrad"
      }
    }
  }
}
node {
  name: "save/RestoreV2_29/shape_and_slices"
  op: "Const"
  attr {
    key: "_output_shapes"
    value {
      list {
        shape {
          dim {
            size: 1
          }
        }
      }
    }
  }
  attr {
    key: "dtype"
    value {
      type: DT_STRING
    }
  }
  attr {
    key: "value"
    value {
      tensor {
        dtype: DT_STRING
        tensor_shape {
          dim {
            size: 1
          }
        }
        string_val: "10 1 0,10:0,1"
      }
    }
  }
}
node {
  name: "save/RestoreV2_29"
  op: "RestoreV2"
  input: "save/Const"
  input: "save/RestoreV2_29/tensor_names"
  input: "save/RestoreV2_29/shape_and_slices"
  attr {
    key: "_output_shapes"
    value {
      list {
        shape {
          unknown_rank: true
        }
      }
    }
  }
  attr {
    key: "dtypes"
    value {
      list {
        type: DT_FLOAT
      }
    }
  }
}
node {
  name: "save/Assign_29"
  op: "Assign"
  input: "dnn/regression_head/dnn/dnn/logits/weights/part_0/Adagrad"
  input: "save/RestoreV2_29"
  attr {
    key: "T"
    value {
      type: DT_FLOAT
    }
  }
  attr {
    key: "_class"
    value {
      list {
        s: "loc:@dnn/logits/weights/part_0"
      }
    }
  }
  attr {
    key: "_output_shapes"
    value {
      list {
        shape {
          dim {
            size: 10
          }
          dim {
            size: 1
          }
        }
      }
    }
  }
  attr {
    key: "use_locking"
    value {
      b: true
    }
  }
  attr {
    key: "validate_shape"
    value {
      b: true
    }
  }
}
node {
  name: "save/RestoreV2_30/tensor_names"
  op: "Const"
  attr {
    key: "_output_shapes"
    value {
      list {
        shape {
          dim {
            size: 1
          }
        }
      }
    }
  }
  attr {
    key: "dtype"
    value {
      type: DT_STRING
    }
  }
  attr {
    key: "value"
    value {
      tensor {
        dtype: DT_STRING
        tensor_shape {
          dim {
            size: 1
          }
        }
        string_val: "dnn/regression_head/dnn/learning_rate"
      }
    }
  }
}
node {
  name: "save/RestoreV2_30/shape_and_slices"
  op: "Const"
  attr {
    key: "_output_shapes"
    value {
      list {
        shape {
          dim {
            size: 1
          }
        }
      }
    }
  }
  attr {
    key: "dtype"
    value {
      type: DT_STRING
    }
  }
  attr {
    key: "value"
    value {
      tensor {
        dtype: DT_STRING
        tensor_shape {
          dim {
            size: 1
          }
        }
        string_val: ""
      }
    }
  }
}
node {
  name: "save/RestoreV2_30"
  op: "RestoreV2"
  input: "save/Const"
  input: "save/RestoreV2_30/tensor_names"
  input: "save/RestoreV2_30/shape_and_slices"
  attr {
    key: "_output_shapes"
    value {
      list {
        shape {
          unknown_rank: true
        }
      }
    }
  }
  attr {
    key: "dtypes"
    value {
      list {
        type: DT_FLOAT
      }
    }
  }
}
node {
  name: "save/Assign_30"
  op: "Assign"
  input: "dnn/regression_head/dnn/learning_rate"
  input: "save/RestoreV2_30"
  attr {
    key: "T"
    value {
      type: DT_FLOAT
    }
  }
  attr {
    key: "_class"
    value {
      list {
        s: "loc:@dnn/regression_head/dnn/learning_rate"
      }
    }
  }
  attr {
    key: "_output_shapes"
    value {
      list {
        shape {
        }
      }
    }
  }
  attr {
    key: "use_locking"
    value {
      b: true
    }
  }
  attr {
    key: "validate_shape"
    value {
      b: true
    }
  }
}
node {
  name: "save/RestoreV2_31/tensor_names"
  op: "Const"
  attr {
    key: "_output_shapes"
    value {
      list {
        shape {
          dim {
            size: 1
          }
        }
      }
    }
  }
  attr {
    key: "dtype"
    value {
      type: DT_STRING
    }
  }
  attr {
    key: "value"
    value {
      tensor {
        dtype: DT_STRING
        tensor_shape {
          dim {
            size: 1
          }
        }
        string_val: "global_step"
      }
    }
  }
}
node {
  name: "save/RestoreV2_31/shape_and_slices"
  op: "Const"
  attr {
    key: "_output_shapes"
    value {
      list {
        shape {
          dim {
            size: 1
          }
        }
      }
    }
  }
  attr {
    key: "dtype"
    value {
      type: DT_STRING
    }
  }
  attr {
    key: "value"
    value {
      tensor {
        dtype: DT_STRING
        tensor_shape {
          dim {
            size: 1
          }
        }
        string_val: ""
      }
    }
  }
}
node {
  name: "save/RestoreV2_31"
  op: "RestoreV2"
  input: "save/Const"
  input: "save/RestoreV2_31/tensor_names"
  input: "save/RestoreV2_31/shape_and_slices"
  attr {
    key: "_output_shapes"
    value {
      list {
        shape {
          unknown_rank: true
        }
      }
    }
  }
  attr {
    key: "dtypes"
    value {
      list {
        type: DT_INT64
      }
    }
  }
}
node {
  name: "save/Assign_31"
  op: "Assign"
  input: "global_step"
  input: "save/RestoreV2_31"
  attr {
    key: "T"
    value {
      type: DT_INT64
    }
  }
  attr {
    key: "_class"
    value {
      list {
        s: "loc:@global_step"
      }
    }
  }
  attr {
    key: "_output_shapes"
    value {
      list {
        shape {
        }
      }
    }
  }
  attr {
    key: "use_locking"
    value {
      b: true
    }
  }
  attr {
    key: "validate_shape"
    value {
      b: true
    }
  }
}
node {
  name: "save/restore_shard"
  op: "NoOp"
  input: "^save/Assign"
  input: "^save/Assign_1"
  input: "^save/Assign_2"
  input: "^save/Assign_3"
  input: "^save/Assign_4"
  input: "^save/Assign_5"
  input: "^save/Assign_6"
  input: "^save/Assign_7"
  input: "^save/Assign_8"
  input: "^save/Assign_9"
  input: "^save/Assign_10"
  input: "^save/Assign_11"
  input: "^save/Assign_12"
  input: "^save/Assign_13"
  input: "^save/Assign_14"
  input: "^save/Assign_15"
  input: "^save/Assign_16"
  input: "^save/Assign_17"
  input: "^save/Assign_18"
  input: "^save/Assign_19"
  input: "^save/Assign_20"
  input: "^save/Assign_21"
  input: "^save/Assign_22"
  input: "^save/Assign_23"
  input: "^save/Assign_24"
  input: "^save/Assign_25"
  input: "^save/Assign_26"
  input: "^save/Assign_27"
  input: "^save/Assign_28"
  input: "^save/Assign_29"
  input: "^save/Assign_30"
  input: "^save/Assign_31"
}
node {
  name: "save/restore_all"
  op: "NoOp"
  input: "^save/restore_shard"
}
versions {
  producer: 24
}
